IA_Exercise8_MachineLearning/Assets/results/RollerBall/RollerBall/RollerBall-0.pt (torch, 151971 bytes, 13 tensors)

network_body._body_endoder.seq_layers.0.weight f4 [128, 8]
-0.261083 0.048002373 -0.3128815 0.7707273 0.160065 -0.16899493 -0.18229 0.07881197
0.119086094 -0.22788951 -0.13583677 0.10928103 -0.18895921 0.24509676 -0.1833543 -0.20499554
-0.5910862 0.40536517 0.095744826 0.17003128 0.7917041 -0.25647858 -0.37815017 0.22603709
0.016276918 0.19385095 0.059176408 -0.14677039 0.18960084 0.00058389286 0.20218858 0.11780394
-0.6176022 -0.31023443 -0.31080568 -0.24327652 0.26599523 0.07300596 -0.47366664 0.11203791
-0.4100691 0.22441871 0.43047425 0.5904995 0.010163594 0.4120968 0.43460923 0.34328103
0.15314084 -0.17982395 -0.10143513 0.056223556 0.43318763 -0.5288276 -0.36862195 -0.11629959
-0.2995779 0.4308964 0.23321803 -0.13941336 0.62144935 -0.019883636 -0.22561136 -0.78074515
-0.19021414 -0.06921613 0.30862322 0.08204897 0.34846696 0.14757632 0.01694078 -0.14979859
0.713108 -0.32055458 -0.298728 -0.39613932 0.3241124 0.37056586 0.77209467 -0.16453204
-0.2941656 0.26701167 -0.26322046 0.14124963 0.10380242 -0.43328616 -0.18146612 0.14477319
0.10404194 -1.2283914 0.7219675 0.4171854 0.032671556 0.34307778 -0.35951665 -0.15577555
0.3120363 -0.2188069 -0.004037747 -0.2626669 0.11348734 0.16987818 0.25702357 0.020205522
-0.07332458 0.30595276 0.1521464 -0.4639169 0.3054954 0.35313004 -0.12849158 0.03477792
-0.8339112 0.16929181 0.034345277 -0.24787666 0.00038535456 0.15749833 -0.037011124 0.112275325
0.19918564 0.055364806 0.5157086 0.5100385 0.3552046 -0.78578955 0.023286384 0.5391442
0.4803047 -0.43309927 0.106685504 -0.112701766 0.12154959 0.17956392 0.1725788 0.24958314
-0.15513651 0.05645642 -0.3507262 0.22864158 -0.20449328 0.01427523 -0.21004611 0.15350609
0.61522907 0.31253514 0.04245013 0.1267117 -0.554293 -0.39060998 -0.76094466 -0.117419064
-0.10822123 0.30351195 0.6585732 -0.53240764 -0.14535607 0.09802836 -0.07186629 -0.04751778
0.15262264 -0.19918297 -0.24509385 -0.317078 0.2842967 0.51300293 -0.058359962 -0.42284057
0.13341255 -0.024453964 -0.09271209 -0.026847884 -0.055866636 0.20375967 0.51714456 -0.00074161857
-0.114712656 0.61457 0.3994421 -0.23277923 0.1175661 -0.20990443 0.016037207 0.33838746
-0.0011917856 0.29943225 0.040058296 -0.16686419 -0.016784286 -0.09725388 0.45217487 -0.081597045
-0.54590654 0.0033059143 0.8271245 0.6167482 0.21040718 0.6195106 -0.0054965555 0.15338457
0.095589936 0.44052774 0.083208084 -0.12713483 0.524012 -0.059544608 -0.09146589 -0.28185818
0.17740181 0.36912635 0.08761539 0.4473894 0.45972773 0.43409416 0.09823222 -0.1262217
-0.52916884 0.40479937 0.37238684 -0.35763776 0.018553251 -0.20924076 0.34303176 0.5643017
-0.54136807 0.20637242 0.015989691 -0.27712724 0.47234368 0.18724133 -0.13224168 0.49466783
0.64914775 0.34846073 -0.06654632 -0.5450383 -0.18381971 -0.1704727 0.5106281 0.08322241
-0.7678064 -0.09259454 0.6971086 0.073888235 0.45907262 0.13051838 -0.001011697 0.6986017
-0.37358856 0.24449833 -0.025757864 0.81531405 -0.13812737 0.34087825 0.15351103 0.16611244
00000000: acac 85be 239e 443d 0132 a0be 624e 453f
00000010: 14e8 233e 020d 2dbe 3baa 3abe 2c68 a13d
00000020: 69e3 f33d de5b 69be cb18 0bbe bcce df3d
00000030: 867e 41be a5fa 7a3e 3bc1 3bbe 5aea 51be
00000040: 6d51 17bf 068c cf3e dd15 c43d ae1c 2e3e
00000050: 1fad 4a3f 2951 83be e69c c1be 4476 673e
00000060: 2c57 853c dd80 463e f662 723d fa4a 16be
00000070: b926 423e 6310 193a 860a 4f3e 3143 f13d
00000080: 2e1b 1ebf 0cd7 9ebe ec21 9fbe 7b1d 79be
00000090: 8730 883e 2684 953d 6f84 f2be 2274 e53d
000000a0: 94f4 d1be 05ce 653e 1f67 dc3e fa2a 173f
000000b0: 3485 263c 5afe d23e 1a85 de3e 88c2 af3e
000000c0: f4d0 1c3e c523 38be 39bd cfbd ac4a 663d
000000d0: c5ca dd3e 3f61 07bf 04bc bcbe 7b2e eebd
000000e0: 4662 99be 749e dc3e b5d0 6e3e 60c2 0ebe
000000f0: 4e17 1f3f 02e3 a2bc aa06 67be eade 47bf
00000100: 7fc7 42be 30c1 8dbd dd03 9e3e 4a09 a83d
00000110: 436a b23e 3f1e 173e 64c7 8a3c cd64 19be
00000120: 3f8e 363f bb1f a4be e0f2 98be c6d2 cabe
00000130: 0ff2 a53e cfba bd3e ffa7 453f 167b 28be
00000140: e09c 96be c1b5 883e d5c4 86be bea3 103e
00000150: 5d96 d43d afd7 ddbe 41d2 39be 6c3f 143e
00000160: f113 d53d ee3b 9dbf ddd2 383f 5399 d53e
00000170: 9cd2 053d e4a7 af3e 9112 b8be a083 1fbe
00000180: 39c3 9f3e ea0e 60be 144f 84bb 477c 86be
00000190: 0d6c e83d 8cf4 2d3e 9898 833e 0d86 a53c
000001a0: 332b 96bd d7a5 9c3e 44cc 1b3e 8486 edbe
000001b0: e569 9c3e 76cd b43e 4c93 03be 4b73 0e3d
000001c0: 347b 55bf d55a 2d3e a2ad 0c3d 61d3 7dbe
000001d0: 6a09 ca39 3e47 213e fa98 17bd 9bf0 e53d
000001e0: 52f7 4b3e 35c6 623d 7b05 043f e291 023f
000001f0: 61dd b53e 8129 49bf 16c3 be3c 5b05 0a3f
00000200: 7fea f53e 30bf ddbe ee7d da3d 2fd0 e6bd
00000210: feee f83d 9bdf 373e 7fb8 303e b992 7f3e
00000220: 1bdc 1ebe d93e 673d 6292 b3be 0521 6a3e
00000230: b066 51be a7e2 693c 5416 57be b330 1d3e
00000240: a77f 1d3f 9b04 a03e 30e0 2d3d b6c0 013e
00000250: 25e6 0dbf 08fe c7be 45cd 42bf 6879 f0bd
00000260: 18a3 ddbd eb65 9b3e 4198 283f de4b 08bf
00000270: 39d8 14be 18c3 c83d a22e 93bd 01a2 42bd
00000280: 1c49 1c3e 9ff6 4bbe e2f9 7abe 0c58 a2be
00000290: 568f 913e 2954 033f db0a 6fbd 8f7e d8be
000002a0: 4d9d 083e ae53 c8bc d6df bdbd 18f0 dbbc
000002b0: 6ad4 64bd 60a6 503e 9663 043f 2e69 42ba
000002c0: 78ee eabd 7654 1d3f ad83 cc3e ae5d 6ebe
000002d0: 7fc6 f03d 30f1 56be 7660 833c 1f41 ad3e
000002e0: b035 9cba 2f4f 993e 2b14 243d 72de 2abe
000002f0: 337f 89bc 0b2d c7bd 7783 e73e 5a1c a7bd
00000300: 88c0 0bbf 0aa8 583b 6ebe 533f 36e3 1d3f
00000310: fb74 573e 3f98 1e3f 731c b4bb d810 1d3e
00000320: a8c4 c33d da8c e13e 0069 aa3d a22f 02be
00000330: a725 063f 0ce5 73bd 7852 bbbd b74f 90be
00000340: d2a8 353e 21fe bc3e b36f b33d 3910 e53e
00000350: 6f61 eb3e 9741 de3e f92d c93d 4340 01be
00000360: 9c77 07bf dd41 cf3e 7da9 be3e 4c1c b7be
00000370: fdfc 973c 3643 56be dca1 af3e 1476 103f
00000380: 1997 0abf 4b53 533e d0fc 823c 9fe3 8dbe
00000390: 08d7 f13e 31bc 3f3e 5d6a 07be 1a45 fd3e
000003a0: 8c2e 263f 7269 b23e 7049 88bd a187 0bbf
000003b0: 3c3b 3cbe 6590 2ebe 86b8 023f 8370 aa3d
000003c0: f68e 44bf 35a2 bdbd b675 323f b752 973d
000003d0: 910b eb3e 9ca6 053e eb9a 84ba 90d7 323f
000003e0: 0047 bfbe c55d 7a3e 2802 d3bc 6cb8 503f
000003f0: 4371 0dbe 9887 ae3e ff31 1d3e 6119 2a3e

network_body._body_endoder.seq_layers.0.bias f4 [128]
0.0 0.0 0.0 0.0 0.0 0.0 0.0 0.0
0.0 0.0 0.0 0.0 0.0 0.0 0.0 0.0
0.0 0.0 0.0 0.0 0.0 0.0 0.0 0.0
0.0 0.0 0.0 0.0 0.0 0.0 0.0 0.0
0.0 0.0 0.0 0.0 0.0 0.0 0.0 0.0
0.0 0.0 0.0 0.0 0.0 0.0 0.0 0.0
0.0 0.0 0.0 0.0 0.0 0.0 0.0 0.0
0.0 0.0 0.0 0.0 0.0 0.0 0.0 0.0
0.0 0.0 0.0 0.0 0.0 0.0 0.0 0.0
0.0 0.0 0.0 0.0 0.0 0.0 0.0 0.0
0.0 0.0 0.0 0.0 0.0 0.0 0.0 0.0
0.0 0.0 0.0 0.0 0.0 0.0 0.0 0.0
0.0 0.0 0.0 0.0 0.0 0.0 0.0 0.0
0.0 0.0 0.0 0.0 0.0 0.0 0.0 0.0
0.0 0.0 0.0 0.0 0.0 0.0 0.0 0.0
0.0 0.0 0.0 0.0 0.0 0.0 0.0 0.0
00000000: 0000 0000 0000 0000 0000 0000 0000 0000
00000010: 0000 0000 0000 0000 0000 0000 0000 0000
00000020: 0000 0000 0000 0000 0000 0000 0000 0000
00000030: 0000 0000 0000 0000 0000 0000 0000 0000
00000040: 0000 0000 0000 0000 0000 0000 0000 0000
00000050: 0000 0000 0000 0000 0000 0000 0000 0000
00000060: 0000 0000 0000 0000 0000 0000 0000 0000
00000070: 0000 0000 0000 0000 0000 0000 0000 0000
00000080: 0000 0000 0000 0000 0000 0000 0000 0000
00000090: 0000 0000 0000 0000 0000 0000 0000 0000
000000a0: 0000 0000 0000 0000 0000 0000 0000 0000
000000b0: 0000 0000 0000 0000 0000 0000 0000 0000
000000c0: 0000 0000 0000 0000 0000 0000 0000 0000
000000d0: 0000 0000 0000 0000 0000 0000 0000 0000
000000e0: 0000 0000 0000 0000 0000 0000 0000 0000
000000f0: 0000 0000 0000 0000 0000 0000 0000 0000
00000100: 0000 0000 0000 0000 0000 0000 0000 0000
00000110: 0000 0000 0000 0000 0000 0000 0000 0000
00000120: 0000 0000 0000 0000 0000 0000 0000 0000
00000130: 0000 0000 0000 0000 0000 0000 0000 0000
00000140: 0000 0000 0000 0000 0000 0000 0000 0000
00000150: 0000 0000 0000 0000 0000 0000 0000 0000
00000160: 0000 0000 0000 0000 0000 0000 0000 0000
00000170: 0000 0000 0000 0000 0000 0000 0000 0000
00000180: 0000 0000 0000 0000 0000 0000 0000 0000
00000190: 0000 0000 0000 0000 0000 0000 0000 0000
000001a0: 0000 0000 0000 0000 0000 0000 0000 0000
000001b0: 0000 0000 0000 0000 0000 0000 0000 0000
000001c0: 0000 0000 0000 0000 0000 0000 0000 0000
000001d0: 0000 0000 0000 0000 0000 0000 0000 0000
000001e0: 0000 0000 0000 0000 0000 0000 0000 0000
000001f0: 0000 0000 0000 0000 0000 0000 0000 0000

network_body._body_endoder.seq_layers.2.weight f4 [128, 128]
-0.0827776 -0.12090899 0.03628191 -0.18119954 0.03755494 0.0069492725 0.070915654 0.092968926
-0.06711047 -0.09037728 0.15451993 -0.11398126 0.05730356 -0.13737822 -0.057021324 -0.034787778
-0.08013517 0.071325846 0.049993448 0.15192705 0.060332365 0.039782677 0.020892233 0.16461295
-0.019394875 0.07076619 0.03058003 0.051747903 -0.07210129 0.15985937 -0.059203222 0.049080838
0.1099561 0.0062204343 -0.11611959 0.08654143 0.13201487 0.15041882 -0.23129214 -0.067620285
0.06470437 -0.027190551 -0.24572016 0.12555091 -0.02714777 0.08632541 -0.06950691 0.049270164
-0.056898907 0.1752858 -0.025244612 -0.08208893 -0.0119194025 -0.03171463 0.042012833 -0.08711789
-0.24498945 0.09193446 -0.08474005 -0.034524646 -0.100009024 -0.055677734 -0.08431449 0.055649232
-0.16049013 -0.054520983 0.009585031 -0.002284794 -0.036080845 -0.0454033 -0.21196571 -0.03302574
0.062582165 -0.07924861 0.090197586 -0.02220144 -0.12269916 0.0755111 0.2210657 -0.08661959
0.034296326 -0.0015825899 -0.049639635 0.07804833 0.022121318 0.0712397 0.14352503 0.116753
-0.010236217 0.0718262 -0.070443 -0.057266135 -0.08601972 -0.07384829 -0.072766244 -0.01798809
0.074935846 0.024576543 0.0048584677 -0.07959043 -0.1533293 -0.03220541 0.14880565 -0.024545254
-0.05915107 0.14616515 0.121216334 -0.14772628 0.045691557 0.052808937 0.033895075 0.19603145
0.17974076 0.10778461 -0.12527949 -0.06953549 -0.05526079 -0.050696425 0.0036757227 0.09746778
-0.062288277 0.033568844 0.06941723 0.10958618 0.010797175 -0.06133785 0.010957213 -0.14029539
-0.118567735 -0.17629455 -0.0018235107 -0.0029516313 -0.048629656 0.01643102 -0.0032861568 -0.2024884
0.1239116 0.09795761 0.1829529 0.102520235 0.034446876 0.009353532 0.055936918 -0.07619356
-0.012476265 0.07197885 0.021028208 0.021891646 -0.05188797 -0.045486048 0.11864715 -0.0400526
0.14580238 0.055572595 -0.13219029 -0.013191254 -0.16581032 0.099998 0.05252383 0.059722777
0.07614053 0.12075227 0.08623349 0.045795344 0.16751006 -0.01938018 0.13619044 -0.095150806
-0.086956374 0.08326978 0.16718157 -0.19294831 0.024358852 0.0663639 0.042316034 0.010671803
-0.02759253 0.047054164 0.010091138 -0.026640732 0.016125493 0.0104081845 -0.17208827 0.04226315
-0.10614246 0.033103496 -0.14379053 -0.111905284 -0.022311445 0.098074384 0.15500934 -0.056380242
0.03345303 0.024074735 -0.09872271 0.14156619 -0.16204576 0.081928074 0.07764312 -0.12774466
0.037837382 -0.09194057 -0.010224536 0.060523383 -0.1211939 -0.14102311 0.080749534 0.19060533
-0.120288156 0.05557005 -0.080730505 -0.07004123 -0.0036596172 0.1258145 -0.011541377 -0.0207899
0.15385382 -0.05051751 0.15550314 -0.094860196 0.024222942 0.022570943 0.0034075018 0.04073371
-0.089880854 -0.036610823 0.12396215 -0.06196977 0.037185587 0.06807502 -0.025008516 -0.07981426
-0.0022071726 -0.057347424 -0.04822603 0.017011672 0.0015558858 -0.00056702475 -0.11313072 -0.084200315
-0.065545164 0.13747954 -0.08138883 -0.120198324 0.0311794 0.032249525 0.22468714 -0.11668882
-0.008069706 -0.017391931 -0.095335536 0.13563506 -0.18917786 -0.0047724107 0.085885935 -0.09079611
00000000: 4d87 a9bd 229f f7bd 579c 143d 5f8c 39be
00000010: 35d3 193d b9b6 e33b 3a3c 913d 7e66 be3d
00000020: 3771 89bd b917 b9bd 793a 1e3e 026f e9bd
00000030: 23b7 6a3d e0ac 0cbe 318f 69bd a17d 0ebd
00000040: e81d a4bd 4913 923d eec5 4c3d c492 1b3e
00000050: 121f 773d 29f3 223d 3026 ab3c 4c90 283e
00000060: 00e2 9ebc dded 903d f982 fa3c 9cf5 533d
00000070: d7a9 93bd 2db2 233e 147f 72bd fd08 493d
00000080: aa30 e13d c9d4 cb3b 1cd0 edbd a23c b13d
00000090: e82e 073e 6407 1a3e d9d7 6cbe 817c 8abd
000000a0: ba83 843d b8be debc 119e 7bbe 6b90 003e
000000b0: 0065 debc 60cb b03d a459 8ebd 83cf 493d
000000c0: d40e 69bd 1f7e 333e cacd cebc 3e1e a8bd
000000d0: 9949 43bc 33e7 01bd a615 2c3d dd6a b2bd
000000e0: 84de 7abe 2248 bc3d 318c adbd b769 0dbd
000000f0: 88d1 ccbd 560e 64bd 13ad acbd 73f0 633d
00000100: 8657 24be 6551 5fbd 890a 1d3c 7cbc 15bb
00000110: 82c9 13bd d0f8 39bd 8a0d 59be 0046 07bd
00000120: 142b 803d 184d a2bd 83b9 b83d cbdf b5bc
00000130: b249 fbbd 90a5 9a3d 0c5f 623e 9d65 b1bd
00000140: 4e7a 0c3d e86e cfba ee52 4bbd ced7 9f3d
00000150: c437 b53c 1fe6 913d 3af8 123e 321c ef3d
00000160: ceb5 27bc 9d19 933d 6b44 90bd e58f 6abd
00000170: 1b2b b0bd c63d 97bd 7806 95bd c25b 93bc
00000180: f777 993d bf54 c93c c833 9f3b 4f00 a3bd
00000190: 5b02 1dbe d2e9 03bd 8260 183e 2113 c9bc
000001a0: 6448 72bd 51ac 153e 4540 f83d 8f45 17be
000001b0: 1227 3b3d 2f4e 583d 90d5 0a3d 78bc 483e
000001c0: f60d 383e 2dbe dc3d 4449 00be 9f68 8ebd
000001d0: 2359 62bd 0ea7 4fbd 65e4 703b 309d c73d
000001e0: fe21 7fbd 7c7f 093d 9f2a 8e3d b86e e03d
000001f0: a2e6 303c 663d 7bbd e285 333c 98a9 0fbe
00000200: a4d3 f2bd 8f86 34be de02 efba 2870 41bb
00000210: e42f 47bd 599a 863c 905c 57bb 1e59 4fbe
00000220: 5dc5 fd3d 009e c83d 0158 3b3e 21f6 d13d
00000230: 2b18 0d3d 8f3f 193c 1c1e 653d 5f0b 9cbd
00000240: 4069 4cbc a669 933d 5943 ac3c 1c56 b33c
00000250: 7b88 54bd 944f 3abd 47fd f23d 320e 24bd
00000260: 384d 153e 17a0 633d e45c 07be 2120 58bc
00000270: 2eca 29be c0cb cc3d 3a23 573d df9f 743d
00000280: 91ef 9b3d f74c f73d 2f9b b03d e693 3b3d
00000290: c287 2b3e 2fc3 9ebc 8275 0b3e 6dde c2bd
000002a0: 2f16 b2bd 5989 aa3d a531 2b3e 3e94 45be
000002b0: 378c c73c cce9 873d 9453 2d3d c9d8 2e3c
000002c0: bb09 e2bc debb 403d 4d55 253c aa3d dabc
000002d0: 9c19 843c 1787 2a3c e837 30be 201c 2d3d
000002e0: 3861 d9bd 8897 073d d33d 13be 992e e5bd
000002f0: 7ec6 b6bc 39db c83d c5ba 1e3e f8ee 66bd
00000300: 0b06 093d 6138 c53c 222f cabd baf6 103e
00000310: 53ef 25be e8c9 a73d 5b03 9f3d 7fcf 02be
00000320: 5ffb 1a3d 564b bcbd d084 27bc 5ee7 773d
00000330: 8234 f8bd 5d68 10be 0360 a53d 0b2e 433e
00000340: a359 f6bd 6c9d 633d 0956 a5bd c771 8fbd
00000350: 30d6 6fbb 84d5 003e 0b18 3dbc 954f aabc
00000360: db8b 1d3e 73eb 4ebd 373c 1f3e 1046 c2bd
00000370: 316f c63c b3e6 b83c 6550 5f3b 64d8 263d
00000380: 7413 b8bd 3bf5 15bd dedf fd3d 03d4 7dbd
00000390: ea4f 183d eb6a 8b3d a9de ccbc a975 a3bd
000003a0: 36a6 10bb 22e5 6abd a888 45bd 105c 8b3c
000003b0: ddee cb3a 63a4 14ba 14b1 e7bd 3771 acbd
000003c0: 8b3c 86bd 70c7 0c3e 30af a6bd 8a2a f6bd
000003d0: f16b ff3c 1418 043d 6314 663e 8cfa eebd
000003e0: cd36 04bc 8679 8ebc 473f c3bd ebe3 0a3e
000003f0: d7b7 41be e261 9cbb f7e4 af3d 50f3 b9bd

network_body._body_endoder.seq_layers.2.bias f4 [128]
0.0 0.0 0.0 0.0 0.0 0.0 0.0 0.0
0.0 0.0 0.0 0.0 0.0 0.0 0.0 0.0
0.0 0.0 0.0 0.0 0.0 0.0 0.0 0.0
0.0 0.0 0.0 0.0 0.0 0.0 0.0 0.0
0.0 0.0 0.0 0.0 0.0 0.0 0.0 0.0
0.0 0.0 0.0 0.0 0.0 0.0 0.0 0.0
0.0 0.0 0.0 0.0 0.0 0.0 0.0 0.0
0.0 0.0 0.0 0.0 0.0 0.0 0.0 0.0
0.0 0.0 0.0 0.0 0.0 0.0 0.0 0.0
0.0 0.0 0.0 0.0 0.0 0.0 0.0 0.0
0.0 0.0 0.0 0.0 0.0 0.0 0.0 0.0
0.0 0.0 0.0 0.0 0.0 0.0 0.0 0.0
0.0 0.0 0.0 0.0 0.0 0.0 0.0 0.0
0.0 0.0 0.0 0.0 0.0 0.0 0.0 0.0
0.0 0.0 0.0 0.0 0.0 0.0 0.0 0.0
0.0 0.0 0.0 0.0 0.0 0.0 0.0 0.0
00000000: 0000 0000 0000 0000 0000 0000 0000 0000
00000010: 0000 0000 0000 0000 0000 0000 0000 0000
00000020: 0000 0000 0000 0000 0000 0000 0000 0000
00000030: 0000 0000 0000 0000 0000 0000 0000 0000
00000040: 0000 0000 0000 0000 0000 0000 0000 0000
00000050: 0000 0000 0000 0000 0000 0000 0000 0000
00000060: 0000 0000 0000 0000 0000 0000 0000 0000
00000070: 0000 0000 0000 0000 0000 0000 0000 0000
00000080: 0000 0000 0000 0000 0000 0000 0000 0000
00000090: 0000 0000 0000 0000 0000 0000 0000 0000
000000a0: 0000 0000 0000 0000 0000 0000 0000 0000
000000b0: 0000 0000 0000 0000 0000 0000 0000 0000
000000c0: 0000 0000 0000 0000 0000 0000 0000 0000
000000d0: 0000 0000 0000 0000 0000 0000 0000 0000
000000e0: 0000 0000 0000 0000 0000 0000 0000 0000
000000f0: 0000 0000 0000 0000 0000 0000 0000 0000
00000100: 0000 0000 0000 0000 0000 0000 0000 0000
00000110: 0000 0000 0000 0000 0000 0000 0000 0000
00000120: 0000 0000 0000 0000 0000 0000 0000 0000
00000130: 0000 0000 0000 0000 0000 0000 0000 0000
00000140: 0000 0000 0000 0000 0000 0000 0000 0000
00000150: 0000 0000 0000 0000 0000 0000 0000 0000
00000160: 0000 0000 0000 0000 0000 0000 0000 0000
00000170: 0000 0000 0000 0000 0000 0000 0000 0000
00000180: 0000 0000 0000 0000 0000 0000 0000 0000
00000190: 0000 0000 0000 0000 0000 0000 0000 0000
000001a0: 0000 0000 0000 0000 0000 0000 0000 0000
000001b0: 0000 0000 0000 0000 0000 0000 0000 0000
000001c0: 0000 0000 0000 0000 0000 0000 0000 0000
000001d0: 0000 0000 0000 0000 0000 0000 0000 0000
000001e0: 0000 0000 0000 0000 0000 0000 0000 0000
000001f0: 0000 0000 0000 0000 0000 0000 0000 0000

action_model._continuous_distribution.log_sigma f4 [1, 2]
0.0 0.0
00000000: 0000 0000 0000 0000

action_model._continuous_distribution.mu.weight f4 [2, 128]
-0.013780593 0.015236479 -0.049621712 0.019634744 0.007504591 0.036095925 -0.00030387432 0.003271407
-0.039458323 0.010057631 -0.013875122 -0.0037966378 0.008950912 -0.01788455 0.006412146 0.009165126
-0.016022986 -0.022657495 -0.013061176 0.006596101 0.017017161 0.012828739 -0.04403683 0.024579229
0.0061229356 -0.0073320875 0.0024994733 -0.022034569 0.007671654 0.008053952 -0.04232076 -0.021156888
-0.011041399 -0.005484514 -0.014205513 -0.005215241 -0.007627353 -0.015071263 -0.014068007 0.0076749236
0.002803087 -0.02720593 0.015723 -0.002276236 0.00153042 -0.00663937 0.008954224 -0.010293462
0.0076195667 -0.002117125 0.023527509 0.014892264 -0.022340957 0.019215902 0.00842408 -0.012500069
0.025656734 -0.015134483 -0.017076194 0.010504978 -0.030830164 0.0096785445 0.005144175 -0.01556367
0.015008624 -0.0056569544 0.008969155 0.012962231 0.022986667 0.022662655 -0.011692916 -0.01852854
-0.016235605 -0.019395491 -0.024025906 0.0029838455 0.020007841 -0.033696003 0.011164406 -0.02399235
0.010973709 -0.016206518 0.0006466936 0.00089074037 -0.04000084 0.016280025 -0.011375561 -0.017375011
0.023688115 0.0008068047 0.006399323 -0.0077705956 0.005680605 -0.001874531 0.007452674 -0.027224913
0.023467837 -0.023723671 -0.011184035 0.0011018976 -0.020466173 -0.007750634 0.0060427072 -0.0037122872
0.0060788644 0.003442686 -0.01282497 0.026552662 -0.0070898845 -0.008782461 -0.029691169 -0.0010424628
-0.057412405 -0.025037607 0.010630003 -0.0056604166 0.007177032 0.01325111 -0.010618339 0.0072710454
-0.023435913 0.015671438 -0.0073549547 -0.0065601217 0.02991387 0.019301115 -0.0064017973 -0.01096757
0.0109967245 0.004946321 0.008419413 -0.038630072 0.013412917 -0.0331604 -0.011373965 0.010413016
-0.013014209 -0.02244853 0.018901797 -0.05032872 0.010593908 -0.009671445 -0.031788386 -0.0023152677
0.01977317 0.024761574 -0.020371657 0.009473444 0.031472035 0.025634691 -0.0010214613 -0.0038749028
0.008129478 0.037298724 -0.010465572 0.010837986 0.018417984 0.022212356 -0.014004304 -0.00515847
-0.015210414 0.01827127 0.014216785 -0.010439651 -0.01166282 0.0021467984 -0.030073298 0.012238333
0.019384181 0.017976051 0.026915524 -0.0034624883 -0.021282872 -0.0059398343 0.003128308 0.007752774
0.0139671685 -0.032181483 -0.0006498822 0.018706612 -0.015722157 0.009624391 0.036034133 -0.019258821
0.019103799 0.0040227473 -0.008658867 -0.022809993 4.215637e-06 -0.013116434 0.013338814 -0.016213583
0.029154798 -0.0130862 0.006582723 -0.0012844641 -0.0068418803 0.008008562 -0.008137074 -0.026054693
0.013487619 -0.0020818808 -0.0026038915 -0.010395485 0.0043864325 -0.025037784 0.046907514 -0.00039001595
0.015111259 -0.009842201 0.0068279537 -0.01728339 -0.009433591 -0.037492733 0.0153934555 0.011580195
-0.02841664 -0.0024100693 -0.017138856 0.003704816 0.013310145 -0.018455636 -0.003980271 -0.0089114485
0.0078114136 0.013632322 -0.0017341141 0.02289013 0.0022249601 0.02133621 0.01608594 -0.005704235
0.017231172 0.025935713 0.024338836 0.0029410017 0.0041798865 0.0013674306 -0.013881206 0.007084589
-0.0043271733 0.021948725 0.02519535 -0.010070302 0.014780352 -0.017116876 -0.0027753662 0.00091309816
-0.004746588 -0.023712572 -0.011370903 0.015412617 -0.011840046 0.024342244 -0.012136458 0.00056795287
00000000: ffc7 61bc 6da2 793c 2340 4bbd 0bd9 a03c
00000010: 12e9 f53b 52d9 133d 5251 9fb9 1a65 563b
00000020: 0d9f 21bd c3c8 243c 7b54 63bc 03d1 78bb
00000030: d9a6 123c 9f82 92bc fb1c d23b 5329 163c
00000040: a342 83bc 369c b9bc 8bfe 55bc 1b24 d83b
00000050: 9367 8b3c a22f 523c f75f 34bd 615a c93c
00000060: e8a2 c83b 0242 f0bb 34ce 233b d781 b4bc
00000070: 8062 fb3b b9f4 033c 8958 2dbd 3651 adbc
00000080: fce6 34bc 70b7 b3bb 3dbe 68bc 9de4 aabb
00000090: e0ee f9bb 75ed 76bc 7f7d 66bc ed7d fb3b
000000a0: ffb3 373b f8de debc 85cd 803c e72c 15bb
000000b0: 6098 c83a 138f d9bb bdb4 123c e9a5 28bc
000000c0: 8fad f93b 77bf 0abb c3bc c03c affe 733c
000000d0: 6204 b7bc ab6a 9d3c 2705 0a3c 17cd 4cbc
000000e0: 122e d23c 9ff6 77bc 60e3 8bbc 121d 2c3c
000000f0: 8a8f fcbc c292 1e3c 7890 a83b c3fe 7ebc
00000100: bbe6 753c f95d b9bb 5df3 123c 8a5f 543c
00000110: 894e bc3c 08a7 b93c a593 3fbc 2ac9 97bc
00000120: 8800 85bc 4be3 9ebc fad1 c4bc 9f8c 433b
00000130: 7ce7 a33c d204 0abd eaea 363c 9b8b c4bc
00000140: 12cb 333c 88c3 84bc df86 293a 9380 693a
00000150: ecd7 23bd b05d 853c 9060 3abc 0a56 8ebc
00000160: 940d c23c bf7f 533a 6ab1 d13b 7ba0 febb
00000170: 5e24 ba3b d3b2 f5ba 9035 f43b c806 dfbc
00000180: 9f3f c03c 2558 c2bc 3e3d 37bc 8c6d 903a
00000190: ada8 a7bc 08f9 fdbb e701 c63b d849 73bb
000001a0: 3631 c73b b09e 613b d31f 52bc f884 d93c
000001b0: 4352 e8bb 50e4 0fbc e53a f3bc 3fa3 88ba
000001c0: 4529 6bbd ab1b cdbc 7729 2e3c 047b b9bb
000001d0: 4f2d eb3b 2f1b 593c 8bf8 2dbc f341 ee3b
000001e0: acfc bfbc 6361 803c d501 f1bb 4af6 d6bb
000001f0: ef0d f53c 5f1d 9e3c 2bc6 d1bb 53b1 33bc
00000200: 9b2b 343c bf14 a23b 94f1 093c 913a 1ebd
00000210: dac1 5b3c 33d3 07bd de59 3abc 5b9b 2a3c
00000220: 8d39 55bc fbe5 b7bc f1d7 9a3c 7d25 4ebd
00000230: 1292 2d3c fb74 1ebc 8a34 02bd bfbb 17bb
00000240: 58fb a13c c9d8 ca3c 76e2 a6bc 8136 1b3c
00000250: d2e8 003d d8ff d13c 8ee2 85ba 15f2 7dbb
00000260: 8131 053c 8cc6 183d ca77 2bbc cf91 313c
00000270: 50e1 963c b0f6 b53c 4f72 65bc 6208 a9bb
00000280: 1a35 79bc a1ad 953c 85ed 683c 120b 2bbc
00000290: 6a15 3fbc 4db1 0c3b 475c f6bc 4a83 483c
000002a0: 93cb 9e3c 8342 933c f27d dc3c eaea 62bb
000002b0: 6b59 aebc f1a2 c2bb 4d04 4d3b fb0a fe3b
000002c0: 8dd6 643c bbd0 03bd db5c 2aba 9c3e 993c
000002d0: c1cb 80bc 9faf 1d3c 8798 133d adc4 9dbc
000002e0: 927f 9c3c 40d1 833b ecdd 0dbc 06dc babc
000002f0: 0c74 8d36 50e6 56bc 0a8b 5a3c 59d2 84bc
00000300: 0bd6 ee3c 8067 56bc e2b3 d73b 775b a8ba
00000310: da31 e0bb 5836 033c 5d51 05bc a770 d5bc
00000320: 2dfb 5c3c 2a70 08bb 0da6 2abb d351 2abc
00000330: 10bc 8f3b 0a1c cdbc 1822 403d 0e7b ccb9
00000340: 3795 773c 2f41 21bc 07bd df3b e595 8dbc
00000350: 598f 1abc fb91 19bd d534 7c3c dcba 3d3c
00000360: 03ca e8bc 41f2 1dbb c966 8cbc 80cc 723b
00000370: cb12 5a3c 4630 97bc ef6c 82bb 5301 12bc
00000380: e3f6 ff3b 1a5a 5f3c 374b e3ba 1584 bb3c
00000390: a3d0 113b 47c9 ae3c a9c6 833c 97ea babb
000003a0: 6328 8d3c 2277 d43c 3d62 c73c d2bd 403b
000003b0: 6ef7 883b 5b3b b33a ff6d 63bc d725 e83b
000003c0: f6ca 8dbb d0cd b33c 7b66 ce3c e8fd 24bc
000003d0: 4a29 723c b138 8cbc ebe2 35bb fb5c 6f3a
000003e0: 4489 9bbb de40 c2bc 064d 3abc 3385 7c3c
000003f0: c1fc 41bc 6369 c73c ffd7 46bc ace2 143a

action_model._continuous_distribution.mu.bias f4 [2]
0.0 0.0
00000000: 0000 0000 0000 0000

action_model._discrete_distribution.branches.0.weight f4 [1, 128]
0.003028972 0.001496029 0.0014328677 0.00066768314 0.004420823 -0.024363704 -0.002792158 0.009017593
-0.0056325677 -0.0168915 0.011496241 0.012781927 0.01139428 0.023026608 -0.004562849 0.009767752
-0.00043297705 -0.0064114407 0.0029429654 0.0024840948 -0.0014544134 0.009746753 0.00733941 0.0039991923
-0.0026577595 0.0052549653 0.0074504726 -0.006668802 0.009238789 0.013942226 -0.000831276 0.006330002
-0.0023152519 0.0058481917 0.021134524 -0.004168968 0.0033480686 0.022249592 0.015995072 -0.0062545612
0.0032455635 -0.012720433 0.004786406 -0.012349394 0.0013808168 -0.0008138264 -0.01606203 0.012100493
-0.021795081 -0.005104359 0.021398732 -0.008654091 0.0025055201 0.016565183 -0.002426673 0.010652049
0.00321507 -0.011071316 -0.003979473 -0.005823851 0.010944833 -0.014501983 0.012339854 0.01755182
0.0014336096 -0.00019357247 -0.0025478571 -0.00048173155 -0.0007928912 0.0075983787 0.004255486 -0.013776148
-0.009936514 -0.013217916 0.0013101285 -0.0060011838 -0.007392429 0.014713009 0.01884691 -0.003949716
-0.0013666969 -0.00018350406 0.00958066 0.0036554527 -0.009865971 0.0022653046 0.00062019477 -0.0034777832
0.013740915 0.00904014 0.0041736574 -0.0059192195 0.0001460951 -0.0022792781 0.0020274238 -0.0008442633
0.0059294933 0.0033776388 0.00026686935 -0.010238228 0.00094902515 0.009940633 -0.0033081684 -0.0034044236
-0.003931886 -0.0025729141 -0.0062945844 -0.005908752 0.0020027831 0.012605488 0.001545161 -0.0030093691
-0.010186544 0.009124081 0.0034539693 -0.002027588 0.005129343 -0.00903696 0.006548197 0.012817095
-0.015073008 -0.0015415106 0.006842597 0.009500594 0.0020119667 -0.00054175797 -0.012756086 0.010368335
00000000: b881 463b 6716 c43a 10cf bb3a 7507 2f3a
00000010: 8ddc 903b 6496 c7bc a3fc 36bb 87be 133c
00000020: 6791 b8bb 0b60 8abc bb5a 3c3c 4a6b 513c
00000030: 13af 3a3c 4ca2 bc3c f483 95bb ec08 203c
00000040: 3201 e3b9 1017 d2bb c4de 403b 32cc 223b
00000050: 04a2 beba d8b0 1f3c 6f7f f03b a80b 833b
00000060: ce2d 2ebb d831 ac3b 1823 f43b f785 dabb
00000070: 4a5e 173c ef6d 643c fde9 59ba e86b cf3b
00000080: 7bbb 17bb 30a2 bf3b 4f22 ad3c d79b 88bb
00000090: 456b 5b3b c744 b63c 1908 833c 10f3 ccbb
000000a0: 85b3 543b 5d69 50bc 49d7 9c3b 1d55 4abc
000000b0: 86fc b43a f756 55ba 8594 83bc 2541 463c
000000c0: 998b b2bc 7742 a7bb 654c af3c e3c9 0dbc
000000d0: a733 243b b5b3 873c d108 1fbb ef85 2e3c
000000e0: edb3 523b 7764 35bc 3d66 82bb 01d6 bebb
000000f0: f551 333c ba99 6dbc 192d 4a3c d6c8 8f3c
00000100: f5e7 bb3a b7f9 4ab9 f3f9 26bb ea90 fcb9
00000110: 07da 4fba d2fb f83b 9b71 8b3b 5ab5 61bc
00000120: c3cc 22bc f58f 58bc 9eb8 ab3a 94a5 c4bb
00000130: 303c f2bb d50e 713c d664 9a3c 9f6c 81bb
00000140: bd22 b3ba ff6a 40b9 33f8 1c3c 5290 6f3b
00000150: e2a4 21bc 8175 143b 9194 223a 85eb 63bb
00000160: 9321 613c 181d 143c 2dc3 883b 03f6 c1bb
00000170: 1b31 1939 f15f 15bb 87de 043b 8d51 5dba
00000180: 324c c23b 605b 5d3b 99ea 8b39 3ebe 27bc
00000190: 00c8 783a 09de 223c dbcd 58bb c01c 5fbb
000001a0: 0dd7 80bb 569e 28bb cd42 cebb 349e c1bb
000001b0: 2041 033b 4087 4e3c 0087 ca3a d638 45bb
000001c0: 76e5 26bc 2b7d 153c fd5b 623b 48e1 04bb
000001d0: 0c14 a83b c20f 14bc 4292 d63b cbfe 513c
000001e0: c7f4 76bc 830c caba dd37 e03b 61a8 1b3c
000001f0: 33db 033b c304 0eba e7fe 50bc f3df 293c

network_body._body_endoder.seq_layers.0.weight f4 [128, 8]
0.224877 0.14665006 0.30777684 -0.46382797 -0.5786436 -0.73808134 -0.94405204 -0.3011721
-0.10951439 0.0054789875 0.30415177 -0.038995735 -0.32556826 -0.34779462 -0.45414448 -0.24482098
0.23455383 -0.45770913 -0.2903023 0.31685993 0.19190453 -0.07995369 0.14302759 -0.13258547
0.59036154 -0.0077313953 0.3864798 -0.45903096 0.17743562 0.14494316 -0.77787316 0.23089796
0.026268855 -0.25619164 0.49155438 -0.32677695 0.32462284 -0.32881123 0.023148231 -0.325281
0.10005881 0.019609787 -0.35602337 -0.07636774 0.1339974 -0.14687932 -0.16773047 0.2489841
0.06796721 0.051127966 -0.455595 0.224681 0.518465 0.4007364 -0.17650492 0.7453205
0.42838734 0.31260931 0.08734063 0.55593204 0.052016545 0.20090821 0.0045477883 -0.39580846
0.17488742 -0.18219703 0.23369932 0.1514506 0.08701238 0.3913844 -0.05878379 -0.12316871
0.025991369 0.11087035 -0.37984148 -0.013404032 -0.037755832 -0.028221097 -0.0711375 0.46777248
-0.10763989 0.07619103 -0.9456975 -0.19845425 -0.030022308 0.09597659 0.022494234 -0.056694653
0.3267066 0.6951062 0.43875167 0.037909646 -0.76129633 0.3643584 0.64374137 -0.32851627
0.03592417 -0.30398223 -0.46354413 -0.32592794 0.002862064 -0.34299842 -0.4128816 -0.36453474
0.15490133 0.24564098 -0.37220436 0.65385026 -0.13741156 -0.7445604 -0.06543969 -0.50930524
0.19272716 -0.19526905 -0.37025306 0.08092375 0.18447052 -0.61669725 0.24905367 -0.06366713
0.21616302 -0.04094857 0.07502403 -0.28157926 -0.22026269 0.10328417 -0.37801743 0.2213265
0.7664883 0.22296241 -0.4647855 0.0959407 0.17246145 -0.39525616 -0.076136425 -0.039560594
0.34122816 -0.109686255 0.011785616 0.17152834 0.03678275 0.15156396 -0.12665775 0.24816658
0.43430132 0.2738685 0.018456096 0.15111968 -0.086054474 0.07986556 -0.068952665 0.2685864
-0.2040933 -0.2773399 0.39072034 0.30458304 0.29081398 0.6310708 0.26362565 0.92349637
-0.01703044 0.1891537 -0.13888368 -0.42593372 -0.13893367 -0.09778189 0.21235837 0.03205025
-0.31020895 0.3231818 0.23898181 0.103838466 0.08917603 0.06689665 -0.23499553 0.35426256
-0.14127643 -0.313982 -0.011984047 -0.69819176 -0.0026452115 0.05506218 0.35387543 -0.22468925
-0.011113427 0.019238165 -0.35035044 0.022467894 0.24724722 0.07415995 0.03675259 -0.024935879
0.043833043 0.28723195 0.0870794 -0.718055 0.16177903 0.123746864 -0.6823784 0.08101779
-0.34422806 -0.59953123 -0.076127194 0.2632939 0.122511245 -0.16607982 -0.03620065 0.4264964
-0.6016079 -0.07121868 -0.5136037 -0.24321453 -0.42770478 0.35321757 0.046115544 -0.10410803
0.5636066 0.132736 0.29728615 -0.06826761 0.3783726 0.12761375 -0.11273369 -0.3940678
0.40921786 0.048485022 -0.24428974 -0.046748452 -0.14557637 0.7274095 0.20993423 0.30740854
0.39187318 0.67139703 -0.22901428 -0.21225707 -0.3302665 0.5117484 0.4358676 0.42680797
0.3433527 0.29657704 0.17595689 -0.044854946 0.1510311 -0.9740915 -0.071457386 -0.23765828
0.32489315 0.09434091 -0.22803314 -0.1819791 0.29668328 0.5111779 0.3654051 0.86668205
00000000: 2846 663e 6f2b 163e ed94 9d3e dc7a edbe
00000010: fd21 14bf e6f2 3cbf 65ad 71bf 3b33 9abe
00000020: 1549 e0bd 1489 b33b c8b9 9b3e feb9 1fbd
00000030: e2b0 a6be 2312 b2be a085 e8be 5ab2 7abe
00000040: e12e 703e da58 eabe 81a2 94be 773b a23e
00000050: 9f82 443e c3be a3bd d375 123e 7cc4 07be
00000060: ef21 173f a557 fdbb aee0 c53e 1b06 ebbe
00000070: afb1 353e fb6b 143e b222 47bf 8470 6c3e
00000080: c831 d73c 8d2b 83be 04ad fb3e 4f4f a7be
00000090: f734 a63e f259 a8be 5ca1 bd3c 3b8b a6be
000000a0: a2eb cc3d b4a4 a03c b248 b6be b166 9cbd
000000b0: 9d36 093e 8867 16be 89c1 2bbe b0f5 7e3e
000000c0: 6532 8b3d 8f6b 513d bf43 e9be c712 663e
000000d0: 1fba 043f 522d cd3e b5bd 34be 53cd 3e3f
000000e0: 9655 db3e 540e a03e a5df b23d 9051 0e3f
000000f0: 4d0f 553d e2ba 4d3e 9d05 953b 68a7 cabe
00000100: b015 333e dc91 3abe e04e 6f3e de15 1b3e
00000110: 8c33 b23d 8963 c83e 45c7 70bd e03f fcbd
00000120: daeb d43c fe0f e33d 957a c2be 969c 5bbc
00000130: dca5 1abd ee2f e7bc 8ab0 91bd e07f ef3e
00000140: 4d72 dcbd 0b0a 9c3d 3b19 72bf 9737 4bbe
00000150: 58f1 f5bc 608f c43d d445 b83c a738 68bd
00000160: 1646 a73e 7bf2 313f 0fa4 e03e 2547 1b3d
00000170: 51e4 42bf 2f8d ba3e 3ccc 243f 4933 a8be
00000180: 3925 133d 8fa3 9bbe a855 edbe 07e0 a6be
00000190: 7791 3b3b 7d9d afbe 3865 d3be 4ca4 babe
000001a0: 749e 1e3e 4f89 7b3e 9291 bebe bb62 273f
000001b0: 9eb5 0cbe 839b 3ebf 3f05 86bd d461 02bf
000001c0: 455a 453e 9cf4 47be cf91 bdbe 5abb a53d
000001d0: d7e5 3c3e dfdf 1dbf ed07 7f3e ea63 82bd
000001e0: d759 5d3e b0b9 27bd 33a6 993d 282b 90be
000001f0: 8b8c 61be a786 d33d 808b c1be 6aa3 623e
00000200: 9438 443f 4250 643e 5df8 edbe 8f7c c43d
00000210: bc99 303e 045f cabe 6aed 9bbd 4a0a 22bd
00000220: 75b5 ae3e 30a3 e0bd 7518 413c 20a5 2f3e
00000230: 82a9 163d 9533 1b3e 92b2 01be 611f 7e3e
00000240: be5c de3e 7e38 8c3e 3d31 973c 1ebf 1a3e
00000250: 543d b0bd 8e90 a33d 0e37 8dbd 2884 893e
00000260: d6fd 50be 7fff 8dbe 7f0c c83e 4ff2 9b3e
00000270: 92e5 943e db8d 213f f1f9 863e 426a 6c3f
00000280: 6c83 8bbc 82b1 413e 8637 0ebe fc13 dabe
00000290: a144 0ebe df41 c8bd 7974 593e 1f47 033d
000002a0: b5d3 9ebe 1678 a53e a6b7 743e 43a9 d43d
000002b0: eca1 b63d 1c01 893d aba2 70be e761 b53e
000002c0: c5aa 10be 40c2 a0be bc58 44bc b2bc 32bf
000002d0: 495b 2dbb e188 613d 292f b53e f014 66be
000002e0: 1715 36bc 5b99 9d3c 2261 b3be 970e b83c
000002f0: 602e 7d3e 2ce1 973d e289 163d 5446 ccbc
00000300: 478a 333d 1110 933e af56 b23d 74d2 37bf
00000310: 67a9 253e ff6e fd3d 5ab0 2ebf a8ec a53d
00000320: a93e b0be e17a 19bf 93e8 9bbd 75ce 863e
00000330: 2de7 fa3d d410 2abe 2247 14bd bc5d da3e
00000340: fa02 1abf 19db 91bd 887b 03bf 3b0d 79be
00000350: 1ffc dabe efd8 b43e a7e3 3c3d 9736 d5bd
00000360: 8648 103f f2eb 073e e435 983e e4cf 8bbd
00000370: 0eba c13e 2ead 023e ece0 e6bd 41c3 c9be
00000380: 0185 d13e 3b98 463d 1727 7abe 4e7b 3fbd
00000390: f911 15be 8237 3a3f 00f9 563e a764 9d3e
000003a0: 9aa3 c83e ade0 2b3f b882 6abe eb59 59be
000003b0: b118 a9be f101 033f 0a2a df3e 9386 da3e
000003c0: edcb af3e f2d8 973e 0b2e 343e d2b9 37bd
000003d0: e6a7 1a3e 0f5e 79bf 4058 92bd b15c 73be
000003e0: 6558 a63e cf35 c13d 8581 69be bb58 3abe
000003f0: dfe6 973e 8edc 023f 6116 bb3e e0de 5d3f

network_body._body_endoder.seq_layers.0.bias f4 [128]
0.0 0.0 0.0 0.0 0.0 0.0 0.0 0.0
0.0 0.0 0.0 0.0 0.0 0.0 0.0 0.0
0.0 0.0 0.0 0.0 0.0 0.0 0.0 0.0
0.0 0.0 0.0 0.0 0.0 0.0 0.0 0.0
0.0 0.0 0.0 0.0 0.0 0.0 0.0 0.0
0.0 0.0 0.0 0.0 0.0 0.0 0.0 0.0
0.0 0.0 0.0 0.0 0.0 0.0 0.0 0.0
0.0 0.0 0.0 0.0 0.0 0.0 0.0 0.0
0.0 0.0 0.0 0.0 0.0 0.0 0.0 0.0
0.0 0.0 0.0 0.0 0.0 0.0 0.0 0.0
0.0 0.0 0.0 0.0 0.0 0.0 0.0 0.0
0.0 0.0 0.0 0.0 0.0 0.0 0.0 0.0
0.0 0.0 0.0 0.0 0.0 0.0 0.0 0.0
0.0 0.0 0.0 0.0 0.0 0.0 0.0 0.0
0.0 0.0 0.0 0.0 0.0 0.0 0.0 0.0
0.0 0.0 0.0 0.0 0.0 0.0 0.0 0.0
00000000: 0000 0000 0000 0000 0000 0000 0000 0000
00000010: 0000 0000 0000 0000 0000 0000 0000 0000
00000020: 0000 0000 0000 0000 0000 0000 0000 0000
00000030: 0000 0000 0000 0000 0000 0000 0000 0000
00000040: 0000 0000 0000 0000 0000 0000 0000 0000
00000050: 0000 0000 0000 0000 0000 0000 0000 0000
00000060: 0000 0000 0000 0000 0000 0000 0000 0000
00000070: 0000 0000 0000 0000 0000 0000 0000 0000
00000080: 0000 0000 0000 0000 0000 0000 0000 0000
00000090: 0000 0000 0000 0000 0000 0000 0000 0000
000000a0: 0000 0000 0000 0000 0000 0000 0000 0000
000000b0: 0000 0000 0000 0000 0000 0000 0000 0000
000000c0: 0000 0000 0000 0000 0000 0000 0000 0000
000000d0: 0000 0000 0000 0000 0000 0000 0000 0000
000000e0: 0000 0000 0000 0000 0000 0000 0000 0000
000000f0: 0000 0000 0000 0000 0000 0000 0000 0000
00000100: 0000 0000 0000 0000 0000 0000 0000 0000
00000110: 0000 0000 0000 0000 0000 0000 0000 0000
00000120: 0000 0000 0000 0000 0000 0000 0000 0000
00000130: 0000 0000 0000 0000 0000 0000 0000 0000
00000140: 0000 0000 0000 0000 0000 0000 0000 0000
00000150: 0000 0000 0000 0000 0000 0000 0000 0000
00000160: 0000 0000 0000 0000 0000 0000 0000 0000
00000170: 0000 0000 0000 0000 0000 0000 0000 0000
00000180: 0000 0000 0000 0000 0000 0000 0000 0000
00000190: 0000 0000 0000 0000 0000 0000 0000 0000
000001a0: 0000 0000 0000 0000 0000 0000 0000 0000
000001b0: 0000 0000 0000 0000 0000 0000 0000 0000
000001c0: 0000 0000 0000 0000 0000 0000 0000 0000
000001d0: 0000 0000 0000 0000 0000 0000 0000 0000
000001e0: 0000 0000 0000 0000 0000 0000 0000 0000
000001f0: 0000 0000 0000 0000 0000 0000 0000 0000

network_body._body_endoder.seq_layers.2.weight f4 [128, 128]
0.0066906423 0.045576125 -0.10191268 0.14365542 -0.047875468 0.19888946 0.014163339 -0.20122713
-0.027674392 0.03698153 -0.03150594 0.009127527 0.0951375 0.040890794 0.007855668 0.07217002
0.19571413 0.05129404 0.060167428 0.07498274 -0.015049282 0.081404775 0.0969661 0.028208943
0.20362699 0.16558157 0.018326692 -0.08522084 0.04502628 0.019122409 -0.0040045823 -0.15869291
0.012065355 0.00078441366 0.04826509 0.11915666 -0.005435719 -0.11164881 0.025683561 -0.035040304
0.05020897 -0.038593285 -0.07929659 0.058249015 0.09584198 0.05304603 0.0209919 0.073878355
-0.008120554 0.051250186 -0.04947089 0.07856287 0.03213969 -0.07147097 -0.07357864 -0.009832666
-0.13060986 -0.066600956 0.019725913 -0.07841004 -0.025972292 -0.03830647 -0.042569242 -0.013937773
-0.106847204 -0.14786732 -0.009394109 0.0781672 -0.15429445 -0.08026146 0.11039135 0.10165024
0.09381501 0.056361347 -0.03624695 -0.0054042903 -0.033852134 0.09041737 0.14982843 -0.08178453
0.014505295 0.1269115 -0.024683764 0.030243825 0.1496511 0.12234546 -0.0027827444 -0.09146791
-0.03782323 0.02957115 0.034870226 -0.028392002 0.02953488 0.068514 0.104968935 0.07507614
0.21423504 -0.06312686 -0.15366791 0.02550686 0.1677881 0.10451233 -0.086759284 0.042246558
0.06796347 -0.087319486 -0.070743196 -0.12509033 -0.08792989 -0.06251939 0.0040788124 0.16299266
0.047117088 -0.058857426 -0.03647139 -0.013381874 -0.06417782 -0.26065293 -0.03782288 -0.08823594
0.00932511 -0.06580664 -0.013720399 0.10887957 0.11821283 0.07288023 0.025947511 0.07131963
0.0491439 -0.0791169 -0.115958646 -0.06578235 -0.16959307 0.14193992 -0.11332174 -0.044471215
-0.067023024 0.120624594 0.0046309764 0.06547517 -0.006025172 0.086484715 -0.0593598 0.084607154
-0.013441061 0.011886134 0.0244725 0.041275885 0.0041281693 -0.08695771 -0.033729646 -0.01002975
0.084450446 -0.082203336 0.08199706 0.15000671 0.092418395 0.042954568 0.031615175 -0.18720391
0.04595412 0.029010186 -0.026429472 -0.0030829837 0.07194235 -0.07783252 0.060818665 -0.18419121
-0.022865582 0.007671389 0.0074423403 0.018000862 0.0120489905 0.137617 -0.015679454 0.11362829
-0.017723018 -0.055560652 0.019545147 -0.10706638 0.048575807 0.010734462 0.072910555 0.14869006
0.046642445 -0.023065193 0.06798375 -0.18066335 -0.08246565 0.030177416 -0.0020253067 -0.011769203
-0.012719668 0.09575944 0.016036639 0.15537979 0.043076772 0.02702017 -0.0512918 -0.004760923
0.014602961 0.04163371 -0.022442754 0.08323269 0.12061521 -0.0438363 -0.017680591 0.05810297
-0.064120755 -0.10068519 -0.10568885 -0.12405116 -0.031099314 0.076807246 0.11517882 -0.009981694
-0.10023545 0.02795376 0.06963026 0.14596796 0.08059713 0.08874116 -0.15073262 -0.0064709894
0.09594815 0.26364827 -0.011328655 -0.15878114 -0.1560942 -0.10026669 0.057553127 0.021500152
0.057487626 -0.052454896 -0.014696506 -0.07811109 -0.024440765 -0.020855512 0.061530393 -0.09811558
0.06508682 -0.03972511 -0.028292893 -0.007850003 -0.107119374 0.051280577 0.11149177 -0.011054467
0.13322109 -0.03187395 -0.04423097 0.09227874 0.120557055 0.07821284 -0.07187331 -0.009075791
00000000: 2d3d db3b 08ae 3a3d 98b7 d0bd 681a 133e
00000010: 1119 44bd aea9 4b3e 590d 683c 7c0e 4ebe
00000020: 68b5 e2bc f279 173d 5f0c 01bd 9f8b 153c
00000030: 73d7 c23d 1b7d 273d 0fb5 003c e0cd 933d
00000040: 4969 483e b319 523d 1f72 763d 8d90 993d
00000050: 4491 76bc 8cb7 a63d 2a96 c63d 7116 e73c
00000060: 9883 503e 378e 293e dc21 963c 4488 aebd
00000070: 7a6d 383d 99a6 9c3c df38 83bb 6580 22be
00000080: c4ad 453c 1ca1 4d3a 9db1 453d 6808 f43d
00000090: 1e1e b2bb 22a8 e4bd 5566 d23c 6c86 0fbd
000000a0: eca7 4d3d fe13 1ebd 4066 a2bd 8596 6e3d
000000b0: cd48 c43d cb46 593d 34f7 ab3c 894d 973d
000000c0: 120c 05bc b7eb 513d fda1 4abd 92e5 a03d
000000d0: e8a4 033d 5f5f 92bd 66b0 96bd 3119 21bc
000000e0: 97be 05be 1566 88bd 3d98 a13c 7195 a0bd
000000f0: d8c3 d4bc 3fe7 1cbd 165d 2ebd 425b 64bc
00000100: b5d2 dabd 886a 17be c0e9 19bc 2016 a03d
00000110: 5dff 1dbe 1f60 a4bd dc14 e23d 002e d03d
00000120: 1522 c03d 28db 663d af77 14bd 7916 b1bb
00000130: 89a8 0abd be2c b93d a06c 193e a67e a7bd
00000140: 9ea7 6d3c 17f5 013e 9b35 cabc e6c1 f73c
00000150: 233e 193e 4290 fa3d b45e 36bb 8753 bbbd
00000160: 88ec 1abd 323f f23c 15d4 0e3d 5896 e8bc
00000170: 22f3 f13c 1151 8c3d f4f9 d63d 85c1 993d
00000180: 6e60 5b3e a848 81bd 1f5b 1dbe c3f3 d03c
00000190: a5d0 2b3e 8f0a d63d daae b1bd ba0a 2d3d
000001a0: 6f30 8b3d 8fd4 b2bd cfe1 90bd ae17 00be
000001b0: 9614 b4bd 2a0a 80bd 8fa7 853b 8ce7 263e
000001c0: d9fd 403d 7c14 71bd 0663 15bd a63f 5bbc
000001d0: a96f 83bd 4d74 85be 2aec 1abd 0bb5 b4bd
000001e0: 59c8 183c a2c5 86bd 86cb 60bc 41fc de3d
000001f0: 9119 f23d 3b42 953d e08f d43c 0710 923d
00000200: 1d4b 493d 0b08 a2bd ba7b edbd e6b8 86bd
00000210: cea9 2dbe b358 113e 3a15 e8bd 7327 36bd
00000220: 5e43 89bd 070a f73d 72bf 973b d917 863d
00000230: ce6e c5bb e61e b13d 4323 73bd 8446 ad3d
00000240: e537 5cbc 0fbe 423c 8d7a c83c e710 293d
00000250: 9845 873b e216 b2bd 1928 0abd d253 24bc
00000260: 5bf4 ac3d 395a a8bd 13ee a73d 5c9b 193e
00000270: db45 bd3d 21f1 2f3d ea7e 013d 62b2 3fbe
00000280: 633a 3c3d c5a6 ed3c 9f82 d8bc e20b 4abb
00000290: 8356 933d a866 9fbd fe1c 793d 9f9c 3cbe
000002a0: 9a50 bbbc 4660 fb3b e0de f33b 8b76 933c
000002b0: 2169 453c 79eb 0c3e 3372 80bc f3b5 e83d
000002c0: dd2f 91bc 9193 63bd 251d a03c 9e45 dbbd
000002d0: 6df7 463d 99df 2f3c 2152 953d 3542 183e
000002e0: 260c 3f3d 37f3 bcbc 103b 8b3d d0ff 38be
000002f0: c0e3 a8bd a136 f73c 02bb 04bb 9dd3 40bc
00000300: 2866 50bc 861d c43d 455f 833c e11b 1f3e
00000310: 4571 303d 6759 dd3c 5a17 52bd 8401 9cbb
00000320: 4241 6f3c 1c88 2a3d ded9 b7bc e775 aa3d
00000330: 1b05 f73d b18d 33bd e3d6 90bc 61fd 6d3d
00000340: be51 83bd 0934 cebd 6573 d8bd 890e febd
00000350: fdc3 febc 1e4d 9d3d e0e2 eb3d 428a 23bc
00000360: 3e48 cdbd 49ff e43c 4f9a 8e3d a078 153e
00000370: 1c10 a53d edbd b53d a759 1abe 980a d4bb
00000380: 7780 c43d e8fc 863e d39b 39bc 8697 22be
00000390: 28d7 1fbe 9f58 cdbd d4bc 6b3d 1621 b03c
000003a0: 2578 6b3d f2da 56bd 9dc9 70bc b5f8 9fbd
000003b0: 0038 c8bc 2ed9 aabc 4b07 7c3d d2f0 c8bd
000003c0: 3d4c 853d ccb6 22bd 7fc6 e7bc 4d9d 00bc
000003d0: 6761 dbbd 950b 523d cc55 e43d cc1d 35bc
000003e0: 1c6b 083e 428e 02bd 892b 35bd a3fc bc3d
000003f0: 9ee6 f63d 0e2e a03d 5032 93bd a0b2 14bc

network_body._body_endoder.seq_layers.2.bias f4 [128]
0.0 0.0 0.0 0.0 0.0 0.0 0.0 0.0
0.0 0.0 0.0 0.0 0.0 0.0 0.0 0.0
0.0 0.0 0.0 0.0 0.0 0.0 0.0 0.0
0.0 0.0 0.0 0.0 0.0 0.0 0.0 0.0
0.0 0.0 0.0 0.0 0.0 0.0 0.0 0.0
0.0 0.0 0.0 0.0 0.0 0.0 0.0 0.0
0.0 0.0 0.0 0.0 0.0 0.0 0.0 0.0
0.0 0.0 0.0 0.0 0.0 0.0 0.0 0.0
0.0 0.0 0.0 0.0 0.0 0.0 0.0 0.0
0.0 0.0 0.0 0.0 0.0 0.0 0.0 0.0
0.0 0.0 0.0 0.0 0.0 0.0 0.0 0.0
0.0 0.0 0.0 0.0 0.0 0.0 0.0 0.0
0.0 0.0 0.0 0.0 0.0 0.0 0.0 0.0
0.0 0.0 0.0 0.0 0.0 0.0 0.0 0.0
0.0 0.0 0.0 0.0 0.0 0.0 0.0 0.0
0.0 0.0 0.0 0.0 0.0 0.0 0.0 0.0
00000000: 0000 0000 0000 0000 0000 0000 0000 0000
00000010: 0000 0000 0000 0000 0000 0000 0000 0000
00000020: 0000 0000 0000 0000 0000 0000 0000 0000
00000030: 0000 0000 0000 0000 0000 0000 0000 0000
00000040: 0000 0000 0000 0000 0000 0000 0000 0000
00000050: 0000 0000 0000 0000 0000 0000 0000 0000
00000060: 0000 0000 0000 0000 0000 0000 0000 0000
00000070: 0000 0000 0000 0000 0000 0000 0000 0000
00000080: 0000 0000 0000 0000 0000 0000 0000 0000
00000090: 0000 0000 0000 0000 0000 0000 0000 0000
000000a0: 0000 0000 0000 0000 0000 0000 0000 0000
000000b0: 0000 0000 0000 0000 0000 0000 0000 0000
000000c0: 0000 0000 0000 0000 0000 0000 0000 0000
000000d0: 0000 0000 0000 0000 0000 0000 0000 0000
000000e0: 0000 0000 0000 0000 0000 0000 0000 0000
000000f0: 0000 0000 0000 0000 0000 0000 0000 0000
00000100: 0000 0000 0000 0000 0000 0000 0000 0000
00000110: 0000 0000 0000 0000 0000 0000 0000 0000
00000120: 0000 0000 0000 0000 0000 0000 0000 0000
00000130: 0000 0000 0000 0000 0000 0000 0000 0000
00000140: 0000 0000 0000 0000 0000 0000 0000 0000
00000150: 0000 0000 0000 0000 0000 0000 0000 0000
00000160: 0000 0000 0000 0000 0000 0000 0000 0000
00000170: 0000 0000 0000 0000 0000 0000 0000 0000
00000180: 0000 0000 0000 0000 0000 0000 0000 0000
00000190: 0000 0000 0000 0000 0000 0000 0000 0000
000001a0: 0000 0000 0000 0000 0000 0000 0000 0000
000001b0: 0000 0000 0000 0000 0000 0000 0000 0000
000001c0: 0000 0000 0000 0000 0000 0000 0000 0000
000001d0: 0000 0000 0000 0000 0000 0000 0000 0000
000001e0: 0000 0000 0000 0000 0000 0000 0000 0000
000001f0: 0000 0000 0000 0000 0000 0000 0000 0000

value_heads.value_heads.extrinsic.weight f4 [1, 128]
0.034102812 0.19669649 0.032157704 -0.07055028 -0.026275948 0.0180486 0.1795333 -0.10253012
-0.09774517 0.07058203 -0.12618381 -0.123614885 0.16310966 -0.0347618 0.12632692 -0.063098535
-0.17170683 0.16385826 0.21367311 -0.19752486 -0.21089274 0.1808433 -0.03476584 0.06149289
-0.019584969 0.09468979 -0.124756746 0.12168056 0.08833149 0.17887512 0.19014475 -0.1865667
-0.20798668 -0.11435346 0.14487511 -0.19209206 -0.21503009 0.13962135 -0.042750776 0.010889426
0.08315247 0.15170074 0.011615843 -0.12907653 -0.047139227 -0.09191713 0.014377043 0.19027293
-0.09016149 -0.16900228 0.0039371997 -0.17561223 0.13580468 -0.14358854 0.079693496 0.090077996
0.21259364 -0.051014498 -0.19268239 -0.013707906 -0.05276823 0.08050394 0.17461413 0.1608296
0.12259382 0.028653473 0.13779598 -0.20677845 0.15058985 0.17518291 -0.13779458 -0.12968889
-0.0064876676 -0.14616732 0.07782906 -0.12594068 -0.02481854 -0.12176963 -0.04272501 0.07361767
0.095823646 0.11702976 -0.16906747 0.09941608 0.00879845 -0.055716738 0.06512919 -0.07680552
-0.09071498 0.17305943 -0.14320332 -0.030078694 -0.15271984 -0.1920751 0.0065864474 0.085864544
0.15187246 0.033350945 0.16312587 0.12345296 -0.026287153 0.117304295 0.0021781176 -0.065026835
-0.048473492 -0.0895022 0.00024577975 -0.060007334 -0.0057639778 -0.029950768 -0.060447633 0.07989663
0.14435923 0.09383038 0.19692326 -0.14016178 0.11646518 -0.15469135 0.12834132 0.19060043
-0.18215045 0.12504947 -0.106996246 -0.07199502 0.1739063 -0.1277822 -0.008114561 0.08312324
00000000: 64af 0b3d ce6a 493e ccb7 033d aa7c 90bd
00000010: a840 d7bc a8da 933c 94d7 373e 50fb d1bd
00000020: 9f2e c8bd 508d 903d 5436 01be cd29 fdbd
00000030: 3806 273e 6462 0ebd d85b 013e ce39 81bd
00000040: ead3 2fbe 76ca 273e 20cd 5a3e f543 4abe
00000050: 44f4 57be fc2e 393e a066 0ebd f8df 7b3d
00000060: a870 a0bc b8ec c13d 7780 ffbd a833 f93d
00000070: 24e7 b43d 0a2b 373e 4eb5 423e 570b 3fbe
00000080: 76fa 54be 2632 eabd 245a 143e c8b3 44be
00000090: d930 5cbe e6f8 0e3e 701b 2fbd 9069 323c
000000a0: d84b aa3d 7057 1b3e 6050 3e3c a32c 04be
000000b0: 1015 41bd 0c3f bcbd b08d 6b3c e8d6 423e
000000c0: 96a6 b8bd ef0e 2dbe a003 813b b1d3 33be
000000d0: 6210 0b3e e008 13be 5836 a33d d07a b83d
000000e0: 26b2 593e 94f4 50bd 884e 45be 2097 60bc
000000f0: 8023 58bd 40df a43d 0cce 323e 84b0 243e
00000100: 7812 fb3d b0ba ea3c 641a 0d3e bbbd 53be
00000110: 3a34 1a3e 2663 333e 061a 0dbe 2acd 04be
00000120: 8096 d4bb e3ac 15be d864 9f3d 98f6 00be
00000130: 4050 cbbc 5b62 f9bd 6c00 2fbd dcc4 963d
00000140: 303f c43d 4cad ef3d 0620 2dbe a89a cb3d
00000150: 6027 103c 3c37 64bd 7462 853d 364c 9dbd
00000160: c7c8 b9bd 7e36 313e e4a3 12be 9867 f6bc
00000170: 9762 1cbe 56af 44be 20d3 d73b c0d9 af3d
00000180: 7484 1b3e 009b 083d 780a 273e e8d4 fc3d
00000190: 2858 d7bc 3c3d f03d c0be 0e3b ca2c 85bd
000001a0: 248c 46bd ee4c b7bd 00dc 8039 40ca 75bd
000001b0: c0df bcbb 505b f5bc f097 77bd d8a0 a33d
000001c0: e8d2 133e 242a c03d 40a6 493e 9286 0fbe
000001d0: 4c85 ee3d 6967 1ebe e86b 033e c22c 433e
000001e0: a685 3abe f80c 003e d920 dbbd 2072 93bd
000001f0: 7e14 323e 56d9 02be f0f2 04bc 843c aa3d
