IA_Exercise8_MachineLearning/Assets/results/RollerBall/RollerBall/RollerBall-0.onnx (onnx, 75769 bytes, 8 tensors)

network_body._body_endoder.seq_layers.0.weight f4 [128, 8]
0	0xbe85acac	-0.261083
1	0x3d449e23	0.048002373
2	0xbea03201	-0.3128815
3	0x3f454e62	0.7707273
4	0x3e23e814	0.160065
5	0xbe2d0d02	-0.16899493
6	0xbe3aaa3b	-0.18229
7	0x3da1682c	0.07881197
8	0x3df3e369	0.119086094
9	0xbe695bde	-0.22788951
10	0xbe0b18cb	-0.13583677
11	0x3ddfcebc	0.10928103
12	0xbe417e86	-0.18895921
13	0x3e7afaa5	0.24509676
14	0xbe3bc13b	-0.1833543
15	0xbe51ea5a	-0.20499554
16	0xbf17516d	-0.5910862
17	0x3ecf8c06	0.40536517
18	0x3dc415dd	0.095744826
19	0x3e2e1cae	0.17003128
20	0x3f4aad1f	0.7917041
21	0xbe835129	-0.25647858
22	0xbec19ce6	-0.37815017
23	0x3e677644	0.22603709
24	0x3c85572c	0.016276918
25	0x3e4680dd	0.19385095
26	0x3d7262f6	0.059176408
27	0xbe164afa	-0.14677039
28	0x3e4226b9	0.18960084
29	0x3a191063	0.00058389286
30	0x3e4f0a86	0.20218858
31	0x3df14331	0.11780394
32	0xbf1e1b2e	-0.6176022
33	0xbe9ed70c	-0.31023443
34	0xbe9f21ec	-0.31080568
35	0xbe791d7b	-0.24327652
36	0x3e883087	0.26599523
37	0x3d958426	0.07300596
38	0xbef2846f	-0.47366664
39	0x3de57422	0.11203791
40	0xbed1f494	-0.4100691
41	0x3e65ce05	0.22441871
42	0x3edc671f	0.43047425
43	0x3f172afa	0.5904995
44	0x3c268534	0.010163594
45	0x3ed2fe5a	0.4120968
46	0x3ede851a	0.43460923
47	0x3eafc288	0.34328103
48	0x3e1cd0f4	0.15314084
49	0xbe3823c5	-0.17982395
50	0xbdcfbd39	-0.10143513
51	0x3d664aac	0.056223556
52	0x3eddcac5	0.43318763
53	0xbf07613f	-0.5288276
54	0xbebcbc04	-0.36862195
55	0xbdee2e7b	-0.11629959
56	0xbe996246	-0.2995779
57	0x3edc9e74	0.4308964
58	0x3e6ed0b5	0.23321803
59	0xbe0ec260	-0.13941336
60	0x3f1f174e	0.62144935
61	0xbca2e302	-0.019883636
62	0xbe6706aa	-0.22561136
63	0xbf47deea	-0.78074515
64	0xbe42c77f	-0.19021414
65	0xbd8dc130	-0.06921613
66	0x3e9e03dd	0.30862322
67	0x3da8094a	0.08204897
68	0x3eb26a43	0.34846696
69	0x3e171e3f	0.14757632
70	0x3c8ac764	0.01694078
71	0xbe1964cd	-0.14979859
72	0x3f368e3f	0.713108
73	0xbea41fbb	-0.32055458
74	0xbe98f2e0	-0.298728
75	0xbecad2c6	-0.39613932
76	0x3ea5f20f	0.3241124
77	0x3ebdbacf	0.37056586
78	0x3f45a7ff	0.77209467
79	0xbe287b16	-0.16453204
80	0xbe969ce0	-0.2941656
81	0x3e88b5c1	0.26701167
82	0xbe86c4d5	-0.26322046
83	0x3e10a3be	0.14124963
84	0x3dd4965d	0.10380242
85	0xbeddd7af	-0.43328616
86	0xbe39d241	-0.18146612
87	0x3e143f6c	0.14477319
88	0x3dd513f1	0.10404194
89	0xbf9d3bee	-1.2283914
90	0x3f38d2dd	0.7219675
91	0x3ed59953	0.4171854
92	0x3d05d29c	0.032671556
93	0x3eafa7e4	0.34307778
94	0xbeb81291	-0.35951665
95	0xbe1f83a0	-0.15577555
96	0x3e9fc339	0.3120363
97	0xbe600eea	-0.2188069
98	0xbb844f14	-0.004037747
99	0xbe867c47	-0.2626669
100	0x3de86c0d	0.11348734
101	0x3e2df48c	0.16987818
102	0x3e839898	0.25702357
103	0x3ca5860d	0.020205522
104	0xbd962b33	-0.07332458
105	0x3e9ca5d7	0.30595276
106	0x3e1bcc44	0.1521464
107	0xbeed8684	-0.4639169
108	0x3e9c69e5	0.3054954
109	0x3eb4cd76	0.35313004
110	0xbe03934c	-0.12849158
111	0x3d0e734b	0.03477792
112	0xbf557b34	-0.8339112
113	0x3e2d5ad5	0.16929181
114	0x3d0cada2	0.034345277
115	0xbe7dd361	-0.24787666
116	0x39ca096a	0.00038535456
117	0x3e21473e	0.15749833
118	0xbd1798fa	-0.037011124
119	0x3de5f09b	0.112275325
120	0x3e4bf752	0.19918564
121	0x3d62c635	0.055364806
122	0x3f04057b	0.5157086
123	0x3f0291e2	0.5100385
124	0x3eb5dd61	0.3552046
125	0xbf492981	-0.78578955
126	0x3cbec316	0.023286384
127	0x3f0a055b	0.5391442
128	0x3ef5ea7f	0.4803047
129	0xbeddbf30	-0.43309927
130	0x3dda7dee	0.106685504
131	0xbde6d02f	-0.112701766
132	0x3df8eefe	0.12154959
133	0x3e37df9b	0.17956392
134	0x3e30b87f	0.1725788
135	0x3e7f92b9	0.24958314
136	0xbe1edc1b	-0.15513651
137	0x3d673ed9	0.05645642
138	0xbeb39262	-0.3507262
139	0x3e6a2105	0.22864158
140	0xbe5166b0	-0.20449328
141	0x3c69e2a7	0.01427523
142	0xbe571654	-0.21004611
143	0x3e1d30b3	0.15350609
144	0x3f1d7fa7	0.61522907
145	0x3ea0049b	0.31253514
146	0x3d2de030	0.04245013
147	0x3e01c0b6	0.1267117
148	0xbf0de625	-0.554293
149	0xbec7fe08	-0.39060998
150	0xbf42cd45	-0.76094466
151	0xbdf07968	-0.117419064
152	0xbddda318	-0.10822123
153	0x3e9b65eb	0.30351195
154	0x3f289841	0.6585732
155	0xbf084bde	-0.53240764
156	0xbe14d839	-0.14535607
157	0x3dc8c318	0.09802836
158	0xbd932ea2	-0.07186629
159	0xbd42a201	-0.04751778
160	0x3e1c491c	0.15262264
161	0xbe4bf69f	-0.19918297
162	0xbe7af9e2	-0.24509385
163	0xbea2580c	-0.317078
164	0x3e918f56	0.2842967
165	0x3f035429	0.51300293
166	0xbd6f0adb	-0.058359962
167	0xbed87e8f	-0.42284057
168	0x3e089d4d	0.13341255
169	0xbcc853ae	-0.024453964
170	0xbdbddfd6	-0.09271209
171	0xbcdbf018	-0.026847884
172	0xbd64d46a	-0.055866636
173	0x3e50a660	0.20375967
174	0x3f046396	0.51714456
175	0xba42692e	-0.00074161857
176	0xbdeaee78	-0.114712656
177	0x3f1d5476	0.61457
178	0x3ecc83ad	0.3994421
179	0xbe6e5dae	-0.23277923
180	0x3df0c67f	0.1175661
181	0xbe56f130	-0.20990443
182	0x3c836076	0.016037207
183	0x3ead411f	0.33838746
184	0xba9c35b0	-0.0011917856
185	0x3e994f2f	0.29943225
186	0x3d24142b	0.040058296
187	0xbe2ade72	-0.16686419
188	0xbc897f33	-0.016784286
189	0xbdc72d0b	-0.09725388
190	0x3ee78377	0.45217487
191	0xbda71c5a	-0.081597045
192	0xbf0bc088	-0.54590654
193	0x3b58a80a	0.0033059143
194	0x3f53be6e	0.8271245
195	0x3f1de336	0.6167482
196	0x3e5774fb	0.21040718
197	0x3f1e983f	0.6195106
198	0xbbb41c73	-0.0054965555
199	0x3e1d10d8	0.15338457
200	0x3dc3c4a8	0.095589936
201	0x3ee18cda	0.44052774
202	0x3daa6900	0.083208084
203	0xbe022fa2	-0.12713483
204	0x3f0625a7	0.524012
205	0xbd73e50c	-0.059544608
206	0xbdbb5278	-0.09146589
207	0xbe904fb7	-0.28185818
208	0x3e35a8d2	0.17740181
209	0x3ebcfe21	0.36912635
210	0x3db36fb3	0.08761539
211	0x3ee51039	0.4473894
212	0x3eeb616f	0.45972773
213	0x3ede4197	0.43409416
214	0x3dc92df9	0.09823222
215	0xbe014043	-0.1262217
216	0xbf07779c	-0.52916884
217	0x3ecf41dd	0.40479937
218	0x3ebea97d	0.37238684
219	0xbeb71c4c	-0.35763776
220	0x3c97fcfd	0.018553251
221	0xbe564336	-0.20924076
222	0x3eafa1dc	0.34303176
223	0x3f107614	0.5643017
224	0xbf0a9719	-0.54136807
225	0x3e53534b	0.20637242
226	0x3c82fcd0	0.015989691
227	0xbe8de39f	-0.27712724
228	0x3ef1d708	0.47234368
229	0x3e3fbc31	0.18724133
230	0xbe076a5d	-0.13224168
231	0x3efd451a	0.49466783
232	0x3f262e8c	0.64914775
233	0x3eb26972	0.34846073
234	0xbd884970	-0.06654632
235	0xbf0b87a1	-0.5450383
236	0xbe3c3b3c	-0.18381971
237	0xbe2e9065	-0.1704727
238	0x3f02b886	0.5106281
239	0x3daa7083	0.08322241
240	0xbf448ef6	-0.7678064
241	0xbdbda235	-0.09259454
242	0x3f3275b6	0.6971086
243	0x3d9752b7	0.073888235
244	0x3eeb0b91	0.45907262
245	0x3e05a69c	0.13051838
246	0xba849aeb	-0.001011697
247	0x3f32d790	0.6986017
248	0xbebf4700	-0.37358856
249	0x3e7a5dc5	0.24449833
250	0xbcd30228	-0.025757864
251	0x3f50b86c	0.81531405
252	0xbe0d7143	-0.13812737
253	0x3eae8798	0.34087825
254	0x3e1d31ff	0.15351103
255	0x3e2a1961	0.16611244

network_body._body_endoder.seq_layers.0.bias f4 [128]
0	0x00000000	0.0
1	0x00000000	0.0
2	0x00000000	0.0
3	0x00000000	0.0
4	0x00000000	0.0
5	0x00000000	0.0
6	0x00000000	0.0
7	0x00000000	0.0
8	0x00000000	0.0
9	0x00000000	0.0
10	0x00000000	0.0
11	0x00000000	0.0
12	0x00000000	0.0
13	0x00000000	0.0
14	0x00000000	0.0
15	0x00000000	0.0
16	0x00000000	0.0
17	0x00000000	0.0
18	0x00000000	0.0
19	0x00000000	0.0
20	0x00000000	0.0
21	0x00000000	0.0
22	0x00000000	0.0
23	0x00000000	0.0
24	0x00000000	0.0
25	0x00000000	0.0
26	0x00000000	0.0
27	0x00000000	0.0
28	0x00000000	0.0
29	0x00000000	0.0
30	0x00000000	0.0
31	0x00000000	0.0
32	0x00000000	0.0
33	0x00000000	0.0
34	0x00000000	0.0
35	0x00000000	0.0
36	0x00000000	0.0
37	0x00000000	0.0
38	0x00000000	0.0
39	0x00000000	0.0
40	0x00000000	0.0
41	0x00000000	0.0
42	0x00000000	0.0
43	0x00000000	0.0
44	0x00000000	0.0
45	0x00000000	0.0
46	0x00000000	0.0
47	0x00000000	0.0
48	0x00000000	0.0
49	0x00000000	0.0
50	0x00000000	0.0
51	0x00000000	0.0
52	0x00000000	0.0
53	0x00000000	0.0
54	0x00000000	0.0
55	0x00000000	0.0
56	0x00000000	0.0
57	0x00000000	0.0
58	0x00000000	0.0
59	0x00000000	0.0
60	0x00000000	0.0
61	0x00000000	0.0
62	0x00000000	0.0
63	0x00000000	0.0
64	0x00000000	0.0
65	0x00000000	0.0
66	0x00000000	0.0
67	0x00000000	0.0
68	0x00000000	0.0
69	0x00000000	0.0
70	0x00000000	0.0
71	0x00000000	0.0
72	0x00000000	0.0
73	0x00000000	0.0
74	0x00000000	0.0
75	0x00000000	0.0
76	0x00000000	0.0
77	0x00000000	0.0
78	0x00000000	0.0
79	0x00000000	0.0
80	0x00000000	0.0
81	0x00000000	0.0
82	0x00000000	0.0
83	0x00000000	0.0
84	0x00000000	0.0
85	0x00000000	0.0
86	0x00000000	0.0
87	0x00000000	0.0
88	0x00000000	0.0
89	0x00000000	0.0
90	0x00000000	0.0
91	0x00000000	0.0
92	0x00000000	0.0
93	0x00000000	0.0
94	0x00000000	0.0
95	0x00000000	0.0
96	0x00000000	0.0
97	0x00000000	0.0
98	0x00000000	0.0
99	0x00000000	0.0
100	0x00000000	0.0
101	0x00000000	0.0
102	0x00000000	0.0
103	0x00000000	0.0
104	0x00000000	0.0
105	0x00000000	0.0
106	0x00000000	0.0
107	0x00000000	0.0
108	0x00000000	0.0
109	0x00000000	0.0
110	0x00000000	0.0
111	0x00000000	0.0
112	0x00000000	0.0
113	0x00000000	0.0
114	0x00000000	0.0
115	0x00000000	0.0
116	0x00000000	0.0
117	0x00000000	0.0
118	0x00000000	0.0
119	0x00000000	0.0
120	0x00000000	0.0
121	0x00000000	0.0
122	0x00000000	0.0
123	0x00000000	0.0
124	0x00000000	0.0
125	0x00000000	0.0
126	0x00000000	0.0
127	0x00000000	0.0

network_body._body_endoder.seq_layers.2.weight f4 [128, 128]
0	0xbda9874d	-0.0827776
1	0xbdf79f22	-0.12090899
2	0x3d149c57	0.03628191
3	0xbe398c5f	-0.18119954
4	0x3d19d335	0.03755494
5	0x3be3b6b9	0.0069492725
6	0x3d913c3a	0.070915654
7	0x3dbe667e	0.092968926
8	0xbd897137	-0.06711047
9	0xbdb917b9	-0.09037728
10	0x3e1e3a79	0.15451993
11	0xbde96f02	-0.11398126
12	0x3d6ab723	0.05730356
13	0xbe0cace0	-0.13737822
14	0xbd698f31	-0.057021324
15	0xbd0e7da1	-0.034787778
16	0xbda41de8	-0.08013517
17	0x3d921349	0.071325846
18	0x3d4cc5ee	0.049993448
19	0x3e1b92c4	0.15192705
20	0x3d771f12	0.060332365
21	0x3d22f329	0.039782677
22	0x3cab2630	0.020892233
23	0x3e28904c	0.16461295
24	0xbc9ee200	-0.019394875
25	0x3d90eddd	0.07076619
26	0x3cfa82f9	0.03058003
27	0x3d53f59c	0.051747903
28	0xbd93a9d7	-0.07210129
29	0x3e23b22d	0.15985937
30	0xbd727f14	-0.059203222
31	0x3d4908fd	0.049080838
32	0x3de130aa	0.1099561
33	0x3bcbd4c9	0.0062204343
34	0xbdedd01c	-0.11611959
35	0x3db13ca2	0.08654143
36	0x3e072ee8	0.13201487
37	0x3e1a0764	0.15041882
38	0xbe6cd7d9	-0.23129214
39	0xbd8a7c81	-0.067620285
40	0x3d8483ba	0.06470437
41	0xbcdebeb8	-0.027190551
42	0xbe7b9e11	-0.24572016
43	0x3e00906b	0.12555091
44	0xbcde6500	-0.02714777
45	0x3db0cb60	0.08632541
46	0xbd8e59a4	-0.06950691
47	0x3d49cf83	0.049270164
48	0xbd690ed4	-0.056898907
49	0x3e337e1f	0.1752858
50	0xbccecdca	-0.025244612
51	0xbda81e3e	-0.08208893
52	0xbc434999	-0.0119194025
53	0xbd01e733	-0.03171463
54	0x3d2c15a6	0.042012833
55	0xbdb26add	-0.08711789
56	0xbe7ade84	-0.24498945
57	0x3dbc4822	0.09193446
58	0xbdad8c31	-0.08474005
59	0xbd0d69b7	-0.034524646
60	0xbdccd188	-0.100009024
61	0xbd640e56	-0.055677734
62	0xbdacad13	-0.08431449
63	0x3d63f073	0.055649232
64	0xbe245786	-0.16049013
65	0xbd5f5165	-0.054520983
66	0x3c1d0a89	0.009585031
67	0xbb15bc7c	-0.002284794
68	0xbd13c982	-0.036080845
69	0xbd39f8d0	-0.0454033
70	0xbe590d8a	-0.21196571
71	0xbd074600	-0.03302574
72	0x3d802b14	0.062582165
73	0xbda24d18	-0.07924861
74	0x3db8b983	0.090197586
75	0xbcb5dfcb	-0.02220144
76	0xbdfb49b2	-0.12269916
77	0x3d9aa590	0.0755111
78	0x3e625f0c	0.2210657
79	0xbdb1659d	-0.08661959
80	0x3d0c7a4e	0.034296326
81	0xbacf6ee8	-0.0015825899
82	0xbd4b52ee	-0.049639635
83	0x3d9fd7ce	0.07804833
84	0x3cb537c4	0.022121318
85	0x3d91e61f	0.0712397
86	0x3e12f83a	0.14352503
87	0x3def1c32	0.116753
88	0xbc27b5ce	-0.010236217
89	0x3d93199d	0.0718262
90	0xbd90446b	-0.070443
91	0xbd6a8fe5	-0.057266135
92	0xbdb02b1b	-0.08601972
93	0xbd973dc6	-0.07384829
94	0xbd950678	-0.072766244
95	0xbc935bc2	-0.01798809
96	0x3d9977f7	0.074935846
97	0x3cc954bf	0.024576543
98	0x3b9f33c8	0.0048584677
99	0xbda3004f	-0.07959043
100	0xbe1d025b	-0.1533293
101	0xbd03e9d2	-0.03220541
102	0x3e186082	0.14880565
103	0xbcc91321	-0.024545254
104	0xbd724864	-0.05915107
105	0x3e15ac51	0.14616515
106	0x3df84045	0.121216334
107	0xbe17458f	-0.14772628
108	0x3d3b2712	0.045691557
109	0x3d584e2f	0.052808937
110	0x3d0ad590	0.033895075
111	0x3e48bc78	0.19603145
112	0x3e380df6	0.17974076
113	0x3ddcbe2d	0.10778461
114	0xbe004944	-0.12527949
115	0xbd8e689f	-0.06953549
116	0xbd625923	-0.05526079
117	0xbd4fa70e	-0.050696425
118	0x3b70e465	0.0036757227
119	0x3dc79d30	0.09746778
120	0xbd7f21fe	-0.062288277
121	0x3d097f7c	0.033568844
122	0x3d8e2a9f	0.06941723
123	0x3de06eb8	0.10958618
124	0x3c30e6a2	0.010797175
125	0xbd7b3d66	-0.06133785
126	0x3c3385e2	0.010957213
127	0xbe0fa998	-0.14029539
128	0xbdf2d3a4	-0.118567735
129	0xbe34868f	-0.17629455
130	0xbaef02de	-0.0018235107
131	0xbb417028	-0.0029516313
132	0xbd472fe4	-0.048629656
133	0x3c869a59	0.01643102
134	0xbb575c90	-0.0032861568
135	0xbe4f591e	-0.2024884
136	0x3dfdc55d	0.1239116
137	0x3dc89e00	0.09795761
138	0x3e3b5801	0.1829529
139	0x3dd1f621	0.102520235
140	0x3d0d182b	0.034446876
141	0x3c193f8f	0.009353532
142	0x3d651e1c	0.055936918
143	0xbd9c0b5f	-0.07619356
144	0xbc4c6940	-0.012476265
145	0x3d9369a6	0.07197885
146	0x3cac4359	0.021028208
147	0x3cb3561c	0.021891646
148	0xbd54887b	-0.05188797
149	0xbd3a4f94	-0.045486048
150	0x3df2fd47	0.11864715
151	0xbd240e32	-0.0400526
152	0x3e154d38	0.14580238
153	0x3d63a017	0.055572595
154	0xbe075ce4	-0.13219029
155	0xbc582021	-0.013191254
156	0xbe29ca2e	-0.16581032
157	0x3dcccbc0	0.099998
158	0x3d57233a	0.05252383
159	0x3d749fdf	0.059722777
160	0x3d9bef91	0.07614053
161	0x3df74cf7	0.12075227
162	0x3db09b2f	0.08623349
163	0x3d3b93e6	0.045795344
164	0x3e2b87c2	0.16751006
165	0xbc9ec32f	-0.01938018
166	0x3e0b7582	0.13619044
167	0xbdc2de6d	-0.095150806
168	0xbdb2162f	-0.086956374
169	0x3daa8959	0.08326978
170	0x3e2b31a5	0.16718157
171	0xbe45943e	-0.19294831
172	0x3cc78c37	0.024358852
173	0x3d87e9cc	0.0663639
174	0x3d2d5394	0.042316034
175	0x3c2ed8c9	0.010671803
176	0xbce209bb	-0.02759253
177	0x3d40bbde	0.047054164
178	0x3c25554d	0.010091138
179	0xbcda3daa	-0.026640732
180	0x3c84199c	0.016125493
181	0x3c2a8717	0.0104081845
182	0xbe3037e8	-0.17208827
183	0x3d2d1c20	0.04226315
184	0xbdd96138	-0.10614246
185	0x3d079788	0.033103496
186	0xbe133dd3	-0.14379053
187	0xbde52e99	-0.111905284
188	0xbcb6c67e	-0.022311445
189	0x3dc8db39	0.098074384
190	0x3e1ebac5	0.15500934
191	0xbd66eef8	-0.056380242
192	0x3d09060b	0.03345303
193	0x3cc53861	0.024074735
194	0xbdca2f22	-0.09872271
195	0x3e10f6ba	0.14156619
196	0xbe25ef53	-0.16204576
197	0x3da7c9e8	0.081928074
198	0x3d9f035b	0.07764312
199	0xbe02cf7f	-0.12774466
200	0x3d1afb5f	0.037837382
201	0xbdbc4b56	-0.09194057
202	0xbc2784d0	-0.010224536
203	0x3d77e75e	0.060523383
204	0xbdf83482	-0.1211939
205	0xbe10685d	-0.14102311
206	0x3da56003	0.080749534
207	0x3e432e0b	0.19060533
208	0xbdf659a3	-0.120288156
209	0x3d639d6c	0.05557005
210	0xbda55609	-0.080730505
211	0xbd8f71c7	-0.07004123
212	0xbb6fd630	-0.0036596172
213	0x3e00d584	0.1258145
214	0xbc3d180b	-0.011541377
215	0xbcaa4f95	-0.0207899
216	0x3e1d8bdb	0.15385382
217	0xbd4eeb73	-0.05051751
218	0x3e1f3c37	0.15550314
219	0xbdc24610	-0.094860196
220	0x3cc66f31	0.024222942
221	0x3cb8e6b3	0.022570943
222	0x3b5f5065	0.0034075018
223	0x3d26d864	0.04073371
224	0xbdb81374	-0.089880854
225	0xbd15f53b	-0.036610823
226	0x3dfddfde	0.12396215
227	0xbd7dd403	-0.06196977
228	0x3d184fea	0.037185587
229	0x3d8b6aeb	0.06807502
230	0xbcccdea9	-0.025008516
231	0xbda375a9	-0.07981426
232	0xbb10a636	-0.0022071726
233	0xbd6ae522	-0.057347424
234	0xbd4588a8	-0.04822603
235	0x3c8b5c10	0.017011672
236	0x3acbeedd	0.0015558858
237	0xba14a463	-0.00056702475
238	0xbde7b114	-0.11313072
239	0xbdac7137	-0.084200315
240	0xbd863c8b	-0.065545164
241	0x3e0cc770	0.13747954
242	0xbda6af30	-0.08138883
243	0xbdf62a8a	-0.120198324
244	0x3cff6bf1	0.0311794
245	0x3d041814	0.032249525
246	0x3e661463	0.22468714
247	0xbdeefa8c	-0.11668882
248	0xbc0436cd	-0.008069706
249	0xbc8e7986	-0.017391931
250	0xbdc33f47	-0.095335536
251	0x3e0ae3eb	0.13563506
252	0xbe41b7d7	-0.18917786
253	0xbb9c61e2	-0.0047724107
254	0x3dafe4f7	0.085885935
255	0xbdb9f350	-0.09079611

network_body._body_endoder.seq_layers.2.bias f4 [128]
0	0x00000000	0.0
1	0x00000000	0.0
2	0x00000000	0.0
3	0x00000000	0.0
4	0x00000000	0.0
5	0x00000000	0.0
6	0x00000000	0.0
7	0x00000000	0.0
8	0x00000000	0.0
9	0x00000000	0.0
10	0x00000000	0.0
11	0x00000000	0.0
12	0x00000000	0.0
13	0x00000000	0.0
14	0x00000000	0.0
15	0x00000000	0.0
16	0x00000000	0.0
17	0x00000000	0.0
18	0x00000000	0.0
19	0x00000000	0.0
20	0x00000000	0.0
21	0x00000000	0.0
22	0x00000000	0.0
23	0x00000000	0.0
24	0x00000000	0.0
25	0x00000000	0.0
26	0x00000000	0.0
27	0x00000000	0.0
28	0x00000000	0.0
29	0x00000000	0.0
30	0x00000000	0.0
31	0x00000000	0.0
32	0x00000000	0.0
33	0x00000000	0.0
34	0x00000000	0.0
35	0x00000000	0.0
36	0x00000000	0.0
37	0x00000000	0.0
38	0x00000000	0.0
39	0x00000000	0.0
40	0x00000000	0.0
41	0x00000000	0.0
42	0x00000000	0.0
43	0x00000000	0.0
44	0x00000000	0.0
45	0x00000000	0.0
46	0x00000000	0.0
47	0x00000000	0.0
48	0x00000000	0.0
49	0x00000000	0.0
50	0x00000000	0.0
51	0x00000000	0.0
52	0x00000000	0.0
53	0x00000000	0.0
54	0x00000000	0.0
55	0x00000000	0.0
56	0x00000000	0.0
57	0x00000000	0.0
58	0x00000000	0.0
59	0x00000000	0.0
60	0x00000000	0.0
61	0x00000000	0.0
62	0x00000000	0.0
63	0x00000000	0.0
64	0x00000000	0.0
65	0x00000000	0.0
66	0x00000000	0.0
67	0x00000000	0.0
68	0x00000000	0.0
69	0x00000000	0.0
70	0x00000000	0.0
71	0x00000000	0.0
72	0x00000000	0.0
73	0x00000000	0.0
74	0x00000000	0.0
75	0x00000000	0.0
76	0x00000000	0.0
77	0x00000000	0.0
78	0x00000000	0.0
79	0x00000000	0.0
80	0x00000000	0.0
81	0x00000000	0.0
82	0x00000000	0.0
83	0x00000000	0.0
84	0x00000000	0.0
85	0x00000000	0.0
86	0x00000000	0.0
87	0x00000000	0.0
88	0x00000000	0.0
89	0x00000000	0.0
90	0x00000000	0.0
91	0x00000000	0.0
92	0x00000000	0.0
93	0x00000000	0.0
94	0x00000000	0.0
95	0x00000000	0.0
96	0x00000000	0.0
97	0x00000000	0.0
98	0x00000000	0.0
99	0x00000000	0.0
100	0x00000000	0.0
101	0x00000000	0.0
102	0x00000000	0.0
103	0x00000000	0.0
104	0x00000000	0.0
105	0x00000000	0.0
106	0x00000000	0.0
107	0x00000000	0.0
108	0x00000000	0.0
109	0x00000000	0.0
110	0x00000000	0.0
111	0x00000000	0.0
112	0x00000000	0.0
113	0x00000000	0.0
114	0x00000000	0.0
115	0x00000000	0.0
116	0x00000000	0.0
117	0x00000000	0.0
118	0x00000000	0.0
119	0x00000000	0.0
120	0x00000000	0.0
121	0x00000000	0.0
122	0x00000000	0.0
123	0x00000000	0.0
124	0x00000000	0.0
125	0x00000000	0.0
126	0x00000000	0.0
127	0x00000000	0.0

action_model._continuous_distribution.log_sigma f4 [1, 2]
0	0x00000000	0.0
1	0x00000000	0.0

action_model._continuous_distribution.mu.weight f4 [2, 128]
0	0xbc61c7ff	-0.013780593
1	0x3c79a26d	0.015236479
2	0xbd4b4023	-0.049621712
3	0x3ca0d90b	0.019634744
4	0x3bf5e912	0.007504591
5	0x3d13d952	0.036095925
6	0xb99f5152	-0.00030387432
7	0x3b56651a	0.003271407
8	0xbd219f0d	-0.039458323
9	0x3c24c8c3	0.010057631
10	0xbc63547b	-0.013875122
11	0xbb78d103	-0.0037966378
12	0x3c12a6d9	0.008950912
13	0xbc92829f	-0.01788455
14	0x3bd21cfb	0.006412146
15	0x3c162953	0.009165126
16	0xbc8342a3	-0.016022986
17	0xbcb99c36	-0.022657495
18	0xbc55fe8b	-0.013061176
19	0x3bd8241b	0.006596101
20	0x3c8b6793	0.017017161
21	0x3c522fa2	0.012828739
22	0xbd345ff7	-0.04403683
23	0x3cc95a61	0.024579229
24	0x3bc8a2e8	0.0061229356
25	0xbbf04202	-0.0073320875
26	0x3b23ce34	0.0024994733
27	0xbcb481d7	-0.022034569
28	0x3bfb6280	0.007671654
29	0x3c03f4b9	0.008053952
30	0xbd2d5889	-0.04232076
31	0xbcad5136	-0.021156888
32	0xbc34e6fc	-0.011041399
33	0xbbb3b770	-0.005484514
34	0xbc68be3d	-0.014205513
35	0xbbaae49d	-0.005215241
36	0xbbf9eee0	-0.007627353
37	0xbc76ed75	-0.015071263
38	0xbc667d7f	-0.014068007
39	0x3bfb7ded	0.0076749236
40	0x3b37b3ff	0.002803087
41	0xbcdedef8	-0.02720593
42	0x3c80cd85	0.015723
43	0xbb152ce7	-0.002276236
44	0x3ac89860	0.00153042
45	0xbbd98f13	-0.00663937
46	0x3c12b4bd	0.008954224
47	0xbc28a5e9	-0.010293462
48	0x3bf9ad8f	0.0076195667
49	0xbb0abf77	-0.002117125
50	0x3cc0bcc3	0.023527509
51	0x3c73feaf	0.014892264
52	0xbcb70462	-0.022340957
53	0x3c9d6aab	0.019215902
54	0x3c0a0527	0.00842408
55	0xbc4ccd17	-0.012500069
56	0x3cd22e12	0.025656734
57	0xbc77f69f	-0.015134483
58	0xbc8be360	-0.017076194
59	0x3c2c1d12	0.010504978
60	0xbcfc8f8a	-0.030830164
61	0x3c1e92c2	0.0096785445
62	0x3ba89078	0.005144175
63	0xbc7efec3	-0.01556367
64	0x3c75e6bb	0.015008624
65	0xbbb95df9	-0.0056569544
66	0x3c12f35d	0.008969155
67	0x3c545f8a	0.012962231
68	0x3cbc4e89	0.022986667
69	0x3cb9a708	0.022662655
70	0xbc3f93a5	-0.011692916
71	0xbc97c92a	-0.01852854
72	0xbc850088	-0.016235605
73	0xbc9ee34b	-0.019395491
74	0xbcc4d1fa	-0.024025906
75	0x3b438c9f	0.0029838455
76	0x3ca3e77c	0.020007841
77	0xbd0a04d2	-0.033696003
78	0x3c36eaea	0.011164406
79	0xbcc48b9b	-0.02399235
80	0x3c33cb12	0.010973709
81	0xbc84c388	-0.016206518
82	0x3a2986df	0.0006466936
83	0x3a698093	0.00089074037
84	0xbd23d7ec	-0.04000084
85	0x3c855db0	0.016280025
86	0xbc3a6090	-0.011375561
87	0xbc8e560a	-0.017375011
88	0x3cc20d94	0.023688115
89	0x3a537fbf	0.0008068047
90	0x3bd1b16a	0.006399323
91	0xbbfea07b	-0.0077705956
92	0x3bba245e	0.005680605
93	0xbaf5b2d3	-0.001874531
94	0x3bf43590	0.007452674
95	0xbcdf06c8	-0.027224913
96	0x3cc03f9f	0.023467837
97	0xbcc25825	-0.023723671
98	0xbc373d3e	-0.011184035
99	0x3a906d8c	0.0011018976
100	0xbca7a8ad	-0.020466173
101	0xbbfdf908	-0.007750634
102	0x3bc601e7	0.0060427072
103	0xbb7349d8	-0.0037122872
104	0x3bc73136	0.0060788644
105	0x3b619eb0	0.003442686
106	0xbc521fd3	-0.01282497
107	0x3cd984f8	0.026552662
108	0xbbe85243	-0.0070898845
109	0xbc0fe450	-0.008782461
110	0xbcf33ae5	-0.029691169
111	0xba88a33f	-0.0010424628
112	0xbd6b2945	-0.057412405
113	0xbccd1bab	-0.025037607
114	0x3c2e2977	0.010630003
115	0xbbb97b04	-0.0056604166
116	0x3beb2d4f	0.007177032
117	0x3c591b2f	0.01325111
118	0xbc2df88b	-0.010618339
119	0x3bee41f3	0.0072710454
120	0xbcbffcac	-0.023435913
121	0x3c806163	0.015671438
122	0xbbf101d5	-0.0073549547
123	0xbbd6f64a	-0.0065601217
124	0x3cf50def	0.02991387
125	0x3c9e1d5f	0.019301115
126	0xbbd1c62b	-0.0064017973
127	0xbc33b153	-0.01096757
128	0x3c342b9b	0.0109967245
129	0x3ba214bf	0.004946321
130	0x3c09f194	0.008419413
131	0xbd1e3a91	-0.038630072
132	0x3c5bc1da	0.013412917
133	0xbd07d333	-0.0331604
134	0xbc3a59de	-0.011373965
135	0x3c2a9b5b	0.010413016
136	0xbc55398d	-0.013014209
137	0xbcb7e5fb	-0.02244853
138	0x3c9ad7f1	0.018901797
139	0xbd4e257d	-0.05032872
140	0x3c2d9212	0.010593908
141	0xbc1e74fb	-0.009671445
142	0xbd02348a	-0.031788386
143	0xbb17bbbf	-0.0023152677
144	0x3ca1fb58	0.01977317
145	0x3ccad8c9	0.024761574
146	0xbca6e276	-0.020371657
147	0x3c1b3681	0.009473444
148	0x3d00e8d2	0.031472035
149	0x3cd1ffd8	0.025634691
150	0xba85e28e	-0.0010214613
151	0xbb7df215	-0.0038749028
152	0x3c053181	0.008129478
153	0x3d18c68c	0.037298724
154	0xbc2b77ca	-0.010465572
155	0x3c3191cf	0.010837986
156	0x3c96e150	0.018417984
157	0x3cb5f6b0	0.022212356
158	0xbc65724f	-0.014004304
159	0xbba90862	-0.00515847
160	0xbc79351a	-0.015210414
161	0x3c95ada1	0.01827127
162	0x3c68ed85	0.014216785
163	0xbc2b0b12	-0.010439651
164	0xbc3f156a	-0.01166282
165	0x3b0cb14d	0.0021467984
166	0xbcf65c47	-0.030073298
167	0x3c48834a	0.012238333
168	0x3c9ecb93	0.019384181
169	0x3c934283	0.017976051
170	0x3cdc7df2	0.026915524
171	0xbb62eaea	-0.0034624883
172	0xbcae596b	-0.021282872
173	0xbbc2a2f1	-0.0059398343
174	0x3b4d044d	0.003128308
175	0x3bfe0afb	0.007752774
176	0x3c64d68d	0.0139671685
177	0xbd03d0bb	-0.032181483
178	0xba2a5cdb	-0.0006498822
179	0x3c993e9c	0.018706612
180	0xbc80cbc1	-0.015722157
181	0x3c1daf9f	0.009624391
182	0x3d139887	0.036034133
183	0xbc9dc4ad	-0.019258821
184	0x3c9c7f92	0.019103799
185	0x3b83d140	0.0040227473
186	0xbc0dddec	-0.008658867
187	0xbcbadc06	-0.022809993
188	0x368d740c	4.215637e-06
189	0xbc56e650	-0.013116434
190	0x3c5a8b0a	0.013338814
191	0xbc84d259	-0.016213583
192	0x3ceed60b	0.029154798
193	0xbc566780	-0.0130862
194	0x3bd7b3e2	0.006582723
195	0xbaa85b77	-0.0012844641
196	0xbbe031da	-0.0068418803
197	0x3c033658	0.008008562
198	0xbc05515d	-0.008137074
199	0xbcd570a7	-0.026054693
200	0x3c5cfb2d	0.013487619
201	0xbb08702a	-0.0020818808
202	0xbb2aa60d	-0.0026038915
203	0xbc2a51d3	-0.010395485
204	0x3b8fbc10	0.0043864325
205	0xbccd1c0a	-0.025037784
206	0x3d402218	0.046907514
207	0xb9cc7b0e	-0.00039001595
208	0x3c779537	0.015111259
209	0xbc21412f	-0.009842201
210	0x3bdfbd07	0.0068279537
211	0xbc8d95e5	-0.01728339
212	0xbc1a8f59	-0.009433591
213	0xbd1991fb	-0.037492733
214	0x3c7c34d5	0.0153934555
215	0x3c3dbadc	0.011580195
216	0xbce8ca03	-0.02841664
217	0xbb1df241	-0.0024100693
218	0xbc8c66c9	-0.017138856
219	0x3b72cc80	0.003704816
220	0x3c5a12cb	0.013310145
221	0xbc973046	-0.018455636
222	0xbb826cef	-0.003980271
223	0xbc120153	-0.0089114485
224	0x3bfff6e3	0.0078114136
225	0x3c5f5a1a	0.013632322
226	0xbae34b37	-0.0017341141
227	0x3cbb8415	0.02289013
228	0x3b11d0a3	0.0022249601
229	0x3caec947	0.02133621
230	0x3c83c6a9	0.01608594
231	0xbbbaea97	-0.005704235
232	0x3c8d2863	0.017231172
233	0x3cd47722	0.025935713
234	0x3cc7623d	0.024338836
235	0x3b40bdd2	0.0029410017
236	0x3b88f76e	0.0041798865
237	0x3ab33b5b	0.0013674306
238	0xbc636dff	-0.013881206
239	0x3be825d7	0.007084589
240	0xbb8dcaf6	-0.0043271733
241	0x3cb3cdd0	0.021948725
242	0x3cce667b	0.02519535
243	0xbc24fde8	-0.010070302
244	0x3c72294a	0.014780352
245	0xbc8c38b1	-0.017116876
246	0xbb35e2eb	-0.0027753662
247	0x3a6f5cfb	0.00091309816
248	0xbb9b8944	-0.004746588
249	0xbcc240de	-0.023712572
250	0xbc3a4d06	-0.011370903
251	0x3c7c8533	0.015412617
252	0xbc41fcc1	-0.011840046
253	0x3cc76963	0.024342244
254	0xbc46d7ff	-0.012136458
255	0x3a14e2ac	0.00056795287

action_model._continuous_distribution.mu.bias f4 [2]
0	0x00000000	0.0
1	0x00000000	0.0

action_model._discrete_distribution.branches.0.weight f4 [1, 128]
0	0x3b4681b8	0.003028972
1	0x3ac41667	0.001496029
2	0x3abbcf10	0.0014328677
3	0x3a2f0775	0.00066768314
4	0x3b90dc8d	0.004420823
5	0xbcc79664	-0.024363704
6	0xbb36fca3	-0.002792158
7	0x3c13be87	0.009017593
8	0xbbb89167	-0.0056325677
9	0xbc8a600b	-0.0168915
10	0x3c3c5abb	0.011496241
11	0x3c516b4a	0.012781927
12	0x3c3aaf13	0.01139428
13	0x3cbca24c	0.023026608
14	0xbb9583f4	-0.004562849
15	0x3c2008ec	0.009767752
16	0xb9e30132	-0.00043297705
17	0xbbd21710	-0.0064114407
18	0x3b40dec4	0.0029429654
19	0x3b22cc32	0.0024840948
20	0xbabea204	-0.0014544134
21	0x3c1fb0d8	0.009746753
22	0x3bf07f6f	0.00733941
23	0x3b830ba8	0.0039991923
24	0xbb2e2dce	-0.0026577595
25	0x3bac31d8	0.0052549653
26	0x3bf42318	0.0074504726
27	0xbbda85f7	-0.006668802
28	0x3c175e4a	0.009238789
29	0x3c646def	0.013942226
30	0xba59e9fd	-0.000831276
31	0x3bcf6be8	0.006330002
32	0xbb17bb7b	-0.0023152519
33	0x3bbfa230	0.0058481917
34	0x3cad224f	0.021134524
35	0xbb889bd7	-0.004168968
36	0x3b5b6b45	0.0033480686
37	0x3cb644c7	0.022249592
38	0x3c830819	0.015995072
39	0xbbccf310	-0.0062545612
40	0x3b54b385	0.0032455635
41	0xbc50695d	-0.012720433
42	0x3b9cd749	0.004786406
43	0xbc4a551d	-0.012349394
44	0x3ab4fc86	0.0013808168
45	0xba5556f7	-0.0008138264
46	0xbc839485	-0.01606203
47	0x3c464125	0.012100493
48	0xbcb28b99	-0.021795081
49	0xbba74277	-0.005104359
50	0x3caf4c65	0.021398732
51	0xbc0dc9e3	-0.008654091
52	0x3b2433a7	0.0025055201
53	0x3c87b3b5	0.016565183
54	0xbb1f08d1	-0.002426673
55	0x3c2e85ef	0.010652049
56	0x3b52b3ed	0.00321507
57	0xbc356477	-0.011071316
58	0xbb82663d	-0.003979473
59	0xbbbed601	-0.005823851
60	0x3c3351f5	0.010944833
61	0xbc6d99ba	-0.014501983
62	0x3c4a2d19	0.012339854
63	0x3c8fc8d6	0.01755182
64	0x3abbe7f5	0.0014336096
65	0xb94af9b7	-0.00019357247
66	0xbb26f9f3	-0.0025478571
67	0xb9fc90ea	-0.00048173155
68	0xba4fda07	-0.0007928912
69	0x3bf8fbd2	0.0075983787
70	0x3b8b719b	0.004255486
71	0xbc61b55a	-0.013776148
72	0xbc22ccc3	-0.009936514
73	0xbc588ff5	-0.013217916
74	0x3aabb89e	0.0013101285
75	0xbbc4a594	-0.0060011838
76	0xbbf23c30	-0.007392429
77	0x3c710ed5	0.014713009
78	0x3c9a64d6	0.01884691
79	0xbb816c9f	-0.003949716
80	0xbab322bd	-0.0013666969
81	0xb9406aff	-0.00018350406
82	0x3c1cf833	0.00958066
83	0x3b6f9052	0.0036554527
84	0xbc21a4e2	-0.009865971
85	0x3b147581	0.0022653046
86	0x3a229491	0.00062019477
87	0xbb63eb85	-0.0034777832
88	0x3c612193	0.013740915
89	0x3c141d18	0.00904014
90	0x3b88c32d	0.0041736574
91	0xbbc1f603	-0.0059192195
92	0x3919311b	0.0001460951
93	0xbb155ff1	-0.0022792781
94	0x3b04de87	0.0020274238
95	0xba5d518d	-0.0008442633
96	0x3bc24c32	0.0059294933
97	0x3b5d5b60	0.0033776388
98	0x398bea99	0.00026686935
99	0xbc27be3e	-0.010238228
100	0x3a78c800	0.00094902515
101	0x3c22de09	0.009940633
102	0xbb58cddb	-0.0033081684
103	0xbb5f1cc0	-0.0034044236
104	0xbb80d70d	-0.003931886
105	0xbb289e56	-0.0025729141
106	0xbbce42cd	-0.0062945844
107	0xbbc19e34	-0.005908752
108	0x3b034120	0.0020027831
109	0x3c4e8740	0.012605488
110	0x3aca8700	0.001545161
111	0xbb4538d6	-0.0030093691
112	0xbc26e576	-0.010186544
113	0x3c157d2b	0.009124081
114	0x3b625bfd	0.0034539693
115	0xbb04e148	-0.002027588
116	0x3ba8140c	0.005129343
117	0xbc140fc2	-0.00903696
118	0x3bd69242	0.006548197
119	0x3c51fecb	0.012817095
120	0xbc76f4c7	-0.015073008
121	0xbaca0c83	-0.0015415106
122	0x3be037dd	0.006842597
123	0x3c1ba861	0.009500594
124	0x3b03db33	0.0020119667
125	0xba0e04c3	-0.00054175797
126	0xbc50fee7	-0.012756086
127	0x3c29dff3	0.010368335
