IA_Exercise8_MachineLearning/Assets/results/RollerBall/RollerBall/RollerBall-499993.pt (torch, 446793 bytes, 39 tensors)

network_body._body_endoder.seq_layers.0.weight f4 [128, 8]
0	0xbed15d00	-0.40891266
1	0x3de23dd5	0.1104695
2	0xbe743f5e	-0.23852298
3	0x3f5db276	0.86600435
4	0x3e6a57b0	0.22885013
5	0xbe1ad3b3	-0.1511982
6	0xbe1d1a5b	-0.15342085
7	0x3dc15cb4	0.0944151
8	0x3e410441	0.18849279
9	0xbe3b270a	-0.18276611
10	0xbe1d647d	-0.15370364
11	0x3c11dd76	0.008902898
12	0xbe1b0756	-0.15139517
13	0x3e9cbdc0	0.30613518
14	0xbe764a69	-0.24051823
15	0xbdda9c60	-0.106743574
16	0xbf1d82d9	-0.6152778
17	0x3ee31ac7	0.44356367
18	0x3dde1a22	0.10844828
19	0x3ea57892	0.3231855
20	0x3f56d025	0.83911353
21	0xbe98c6c0	-0.29839134
22	0xbe8dc793	-0.27691326
23	0x3e471b60	0.19444036
24	0xbd082e4d	-0.03324728
25	0x3e9ca2e5	0.3059303
26	0xbc031285	-0.008000021
27	0xbd358786	-0.0443187
28	0x3e9d2f46	0.3070013
29	0x3ddf609f	0.10907101
30	0x3e65e60d	0.22451039
31	0x3dd3a1ac	0.10333571
32	0xbf02b4a4	-0.51056886
33	0xbeaf4add	-0.34236804
34	0xbe82c4a8	-0.25540662
35	0xbe44b740	-0.1921053
36	0x3e68b9d3	0.22727136
37	0x3e39fe1f	0.18163346
38	0xbed3e8b9	-0.4138849
39	0x3d5a61b2	0.053315826
40	0xbeece9e6	-0.462722
41	0x3d6dca61	0.05805433
42	0x3e9e06f4	0.3086468
43	0x3f22a944	0.6353953
44	0xbe274758	-0.16335809
45	0x3ec66ec0	0.3875637
46	0x3ec9220d	0.3928379
47	0x3e9485ee	0.2900843
48	0x3df4f587	0.11960893
49	0xbe509ba4	-0.20371872
50	0x3c94f19d	0.018181616
51	0x3d5c1fee	0.053741388
52	0x3ed47fae	0.41503662
53	0xbf0b7348	-0.5447278
54	0xbeaafa31	-0.33394006
55	0xbdfa2cc3	-0.12215569
56	0xbebf764b	-0.37394938
57	0x3ed5c6fc	0.41753376
58	0x3eaec225	0.34132496
59	0xbd5a9dab	-0.05337302
60	0x3f1d96c0	0.6155815
61	0xbddc8a31	-0.107685454
62	0xbe0ae9de	-0.13565776
63	0xbf4773ce	-0.7791108
64	0xbe57cef7	-0.21075045
65	0xbe2e7607	-0.17037211
66	0x3e952ae7	0.29134294
67	0x3e3267a0	0.17422342
68	0x3e7ec6d7	0.24880539
69	0x3d9ad980	0.07561016
70	0x3da6e8da	0.08149882
71	0xbe4a4d7f	-0.19756125
72	0x3f476198	0.7788329
73	0xbe7d24dd	-0.24721093
74	0xbede7c40	-0.4345417
75	0xbed6cc92	-0.4195295
76	0x3ec83446	0.3910238
77	0x3ec75466	0.38931578
78	0x3f3e0cfa	0.7423855
79	0xbe049fa7	-0.12951528
80	0xbe9924b7	-0.29910824
81	0x3e89d2bd	0.26918593
82	0xbe73a6a3	-0.23794036
83	0x3e4e66fa	0.2015647
84	0x3de28121	0.11059786
85	0xbec35463	-0.3815032
86	0xbdfb40cc	-0.122682184
87	0x3e22e16c	0.15906304
88	0x3dcae3b9	0.09906716
89	0xbfa82eb8	-1.3139257
90	0x3f14f87c	0.5819166
91	0x3ef49bdc	0.4777516
92	0xbd7d1ab3	-0.06179304
93	0x3e8b9338	0.27260756
94	0xbea68ba9	-0.32528427
95	0xbe8b1cc4	-0.27170384
96	0x3ea3b6c4	0.31975377
97	0xbe907eab	-0.2822164
98	0xbe1448a3	-0.14480834
99	0xbe863e12	-0.2621923
100	0x3d413e54	0.04717858
101	0x3e094ec0	0.13408947
102	0x3e5226b1	0.20522572
103	0xbc8a4f5b	-0.016883543
104	0xbb816109	-0.003948335
105	0x3e5ab557	0.21358238
106	0x3e261b3f	0.16221331
107	0xbef63086	-0.48083895
108	0x3e56b9f4	0.20969373
109	0x3edcea7d	0.4314765
110	0xbe149852	-0.1451123
111	0x3d21bf39	0.039489005
112	0xbf62f12b	-0.88649243
113	0x3e69e5a2	0.22841504
114	0x3cab3b3d	0.02090227
115	0xbdf7d448	-0.12101036
116	0x3d79bfcc	0.060973927
117	0x3de51133	0.11184921
118	0x3c281ee8	0.010261275
119	0x3dc8d50b	0.0980626
120	0x3dd02b80	0.10164547
121	0x3ca0da3c	0.019635312
122	0x3f09104b	0.53540486
123	0x3efb67d0	0.4910264
124	0x3ea86c6c	0.3289522
125	0xbf5ae6c3	-0.85508364
126	0x3c90f292	0.017693792
127	0x3ef55410	0.47915697
128	0x3ef9a22c	0.4875654
129	0xbef06a9b	-0.46956334
130	0xbbd4171d	-0.006472482
131	0xbe311450	-0.17292905
132	0x3d9c9e4f	0.076473825
133	0x3e3f9813	0.18710355
134	0x3e300bff	0.17192076
135	0x3e7fa3dc	0.24964851
136	0xbdf0a466	-0.117501065
137	0x3df9dfb2	0.122008696
138	0xbedbac36	-0.42904824
139	0x3e6cd9ba	0.23129931
140	0xbe10946c	-0.14119118
141	0x3e21fcbd	0.15819068
142	0xbe3fff95	-0.1874984
143	0x3e293fb6	0.1652821
144	0x3f258244	0.64651895
145	0x3e8f47d6	0.27984494
146	0x3dac0cf4	0.08400908
147	0x3e0e578d	0.13900585
148	0xbf16e5c2	-0.5894433
149	0xbecc0d96	-0.39854115
150	0xbf2e495a	-0.68080676
151	0xbe2782cd	-0.1635849
152	0xbd474d48	-0.048657686
153	0x3e90cefb	0.28282914
154	0x3f27a538	0.6548648
155	0xbf1090cd	-0.5647095
156	0xbe2895fa	-0.16463462
157	0x3e40c6db	0.18825857
158	0xbd800bb3	-0.062522314
159	0xba8abcf5	-0.0010584878
160	0x3e906474	0.2820164
161	0xbdcf900f	-0.10134899
162	0xbe48e34b	-0.19617955
163	0xbecfa751	-0.4055734
164	0x3ec08c9e	0.37607282
165	0x3eea941f	0.45816132
166	0xbc263ba3	-0.010146054
167	0xbef56994	-0.47932112
168	0x3c9de957	0.019276304
169	0xbda5cabb	-0.080953084
170	0xbe4b110f	-0.19830726
171	0x3d07287a	0.032997586
172	0xbde16000	-0.11004639
173	0x3e90110d	0.2813801
174	0x3ed83dbd	0.42234603
175	0x3d404908	0.046944648
176	0xbd355136	-0.044266902
177	0x3f044217	0.51663345
178	0x3eb97e7e	0.36229318
179	0xbea4e072	-0.32202488
180	0x3ccda6cc	0.025103949
181	0xbeafd939	-0.34345415
182	0x3da18f5d	0.078886725
183	0x3e89d36e	0.2691912
184	0x3cd6ee10	0.026236564
185	0x3e9628c1	0.29327968
186	0x3d6df600	0.058095932
187	0xbe2bde8e	-0.16784117
188	0xbca8f99e	-0.02062684
189	0xbd7d6de4	-0.061872378
190	0x3ed1441c	0.40872276
191	0xbc9ffd0c	-0.019529842
192	0xbf214b29	-0.6300531
193	0x3b98914e	0.0046559935
194	0x3f359b33	0.7093994
195	0x3f4925d8	0.7857337
196	0x3e593e10	0.21215081
197	0x3f16dddd	0.58932287
198	0x3d03aaea	0.03214542
199	0x3dc49107	0.09597974
200	0x3e461db5	0.1934727
201	0x3f113376	0.5671915
202	0x3de2c94f	0.11073553
203	0xbe38fb1f	-0.18064545
204	0x3f26061f	0.6485309
205	0xbd124dba	-0.035718657
206	0xbd946f36	-0.07247774
207	0xbe680278	-0.22657192
208	0xbc4d1486	-0.0125171
209	0x3ec1088a	0.37701827
210	0x3d67043e	0.05640053
211	0x3ef49775	0.47771803
212	0x3eee5d2e	0.46555465
213	0x3ed8bb78	0.42330527
214	0x3d496a43	0.049173605
215	0xbe0fe9a1	-0.14053966
216	0xbf0eca45	-0.5577739
217	0x3eb907c1	0.36138728
218	0x3ed45c9b	0.41476902
219	0xbe99a2f7	-0.30007145
220	0xbca9de0d	-0.020735765
221	0xbe92b420	-0.2865305
222	0x3eb3ef31	0.35143426
223	0x3efa4da5	0.48887363
224	0xbee9872d	-0.45610943
225	0x3e7490e2	0.23883393
226	0xbd87f78f	-0.06639015
227	0xbe6aeb89	-0.22941412
228	0x3f026e99	0.5095001
229	0x3e39a41e	0.18129012
230	0xbdafa0ee	-0.08575617
231	0x3f171c09	0.59027153
232	0x3f2ba421	0.67047316
233	0x3e9bb288	0.30409646
234	0xbda7de42	-0.08196689
235	0xbf1faa56	-0.62369287
236	0xbe69a90d	-0.22818394
237	0xbe7281bb	-0.23682301
238	0x3ee8ea6c	0.4549135
239	0x3e03303f	0.12811373
240	0xbf5a8a04	-0.85366845
241	0xbdfc10ff	-0.12307929
242	0x3f1a6251	0.6030627
243	0x3e567a45	0.2094508
244	0x3ede8b4a	0.43465644
245	0x3e084d36	0.13310704
246	0xbd090df0	-0.033460557
247	0x3f2c3c8e	0.672799
248	0xbf10f020	-0.566164
249	0x3ea1d021	0.31604102
250	0xbdc15bc5	-0.09441332
251	0x3f57570a	0.84117186
252	0xbd8d263e	-0.0689206
253	0x3e9c0ff0	0.3048091
254	0x3df5b0b4	0.11996594
255	0x3e168c70	0.1470201

network_body._body_endoder.seq_layers.0.bias f4 [128]
0	0x3d7fdcca	0.06246642
1	0x3d38d424	0.045124188
2	0x3d1c755f	0.03819787
3	0x3de58be5	0.112083234
4	0xbd039ea7	-0.032133725
5	0xbe2a5b06	-0.16636285
6	0xbcc3c0b5	-0.0238956
7	0xbc5af409	-0.013363847
8	0xbdcf29c9	-0.10115392
9	0x3d9635ce	0.07334481
10	0x3b0e53a5	0.0021717336
11	0xbdaf3604	-0.085552245
12	0xbd81de70	-0.06341255
13	0xbdbd2d7d	-0.09237192
14	0x3d722a53	0.059122395
15	0xbd1258b3	-0.03572912
16	0xbd155a36	-0.036462985
17	0x3d864140	0.06555414
18	0xbd05eb5d	-0.032695163
19	0xbca976c6	-0.020686518
20	0x3dc85d1f	0.097833864
21	0xbd676a95	-0.05649813
22	0xbdc892a1	-0.09793592
23	0xbbc9ba69	-0.006156255
24	0x3ab0ed98	0.0013498543
25	0x3e01b25d	0.12665696
26	0x3c012f18	0.007884763
27	0xbd31ce76	-0.043409787
28	0x3d04f6f5	0.03246208
29	0xbd35bb30	-0.04436797
30	0xbcf9b87a	-0.030483473
31	0x3d928467	0.0715416
32	0x3d8cc0b6	0.06872694
33	0xbdb82a4e	-0.08992444
34	0xbda6b93b	-0.08140799
35	0x3ca04b8a	0.01956727
36	0x3d9a092d	0.075212814
37	0x3df9436d	0.121710636
38	0x3db36727	0.08759909
39	0xbce1aba4	-0.027547665
40	0x3d3101d2	0.043214627
41	0x3e1b2492	0.15150669
42	0x3e2a41bc	0.16626638
43	0x3e2dc5c8	0.16969979
44	0xbd44834d	-0.04797678
45	0x3e0b6475	0.1361254
46	0xbb7acb69	-0.0038268215
47	0x3c7e404a	0.015518257
48	0xbd6f060a	-0.05835537
49	0x3e375cc6	0.17906484
50	0x3def7f3b	0.11694189
51	0xbd4b27ac	-0.04959838
52	0xbc159a8b	-0.009131084
53	0x3ddacfdc	0.10684177
54	0xbd3aed58	-0.045636505
55	0xbd7590e4	-0.05995263
56	0x3dc35663	0.09537961
57	0xbe6b8e99	-0.23003615
58	0xbdbb7d83	-0.09154799
59	0x3deed4f4	0.11661711
60	0x3d6e6944	0.058205858
61	0x3d9971e8	0.07492429
62	0x3d5d2796	0.05399283
63	0xbdb4e203	-0.08832171
64	0x3c99e124	0.018784113
65	0x3e4c99e4	0.1998058
66	0x3bdc6f5f	0.0067271437
67	0x3cc93265	0.024560163
68	0x3db20c1e	0.086937174
69	0x3dd037ae	0.1016687
70	0xbc745245	-0.014912193
71	0x3d267eed	0.04064839
72	0x3d298d82	0.041394718
73	0xbe1dafad	-0.15399046
74	0xbe1197aa	-0.14218011
75	0xbc97d98b	-0.01853635
76	0xbe677901	-0.22604753
77	0x3ccfa3a8	0.025346592
78	0x3cbe1357	0.023202581
79	0x3d524e31	0.0513441
80	0x3d442dbb	0.047895174
81	0x3c227972	0.00991665
82	0x3bbed316	0.0058235032
83	0xbd6b1504	-0.05739309
84	0x3ca9ccb7	0.020727498
85	0xbdec3ac0	-0.11534643
86	0x3b2824ef	0.002565678
87	0xbd182d4d	-0.037152577
88	0xbe23b3f9	-0.15986623
89	0xbc434a7a	-0.011919612
90	0xbdad2033	-0.08453407
91	0x3d83a692	0.06428255
92	0x3e2edfa2	0.17077497
93	0xbd46da0a	-0.048547782
94	0xbcb2eef8	-0.021842465
95	0x3d369083	0.04457141
96	0x3ccea510	0.025225192
97	0x3d9895bf	0.07450437
98	0x3d98cc03	0.07460787
99	0xbda58b4c	-0.080832094
100	0xbe18e52f	-0.14931177
101	0xbd18fda4	-0.037351266
102	0x3ce842cc	0.028352164
103	0x3e3cbfab	0.1843249
104	0x3ddbcfc0	0.107329845
105	0x3bb15814	0.005412111
106	0x3d8745c8	0.066051066
107	0xbd94f5f1	-0.07273472
108	0xbd130baf	-0.035899814
109	0x3dd8a0f6	0.10577576
110	0x3c9ae6b4	0.018908836
111	0x3d06eca1	0.03294051
112	0xbdd452e7	-0.10367375
113	0xbd79aa9f	-0.060953733
114	0x3e0be095	0.1365989
115	0x3bf1ce18	0.0073793046
116	0x3d89dc65	0.0673149
117	0xbe0a5241	-0.1350794
118	0xbde39cba	-0.111138776
119	0x3db44456	0.088020965
120	0x3c836343	0.016038543
121	0x3dcd3464	0.10019758
122	0x3dc48d92	0.09597315
123	0xbccbf509	-0.024897115
124	0xbd8e1f31	-0.06939543
125	0x3d467536	0.048451625
126	0xbcaf9738	-0.021434411
127	0x3c291449	0.010319778

network_body._body_endoder.seq_layers.2.weight f4 [128, 128]
0	0xbd184598	-0.037175745
1	0xbe5b77e5	-0.21432455
2	0x3da8ab08	0.082357466
3	0xbe5fca4e	-0.21854517
4	0x3d2fb16e	0.04289382
5	0x3d0e7f33	0.034789275
6	0x3da78efd	0.0818157
7	0x3e1edbc3	0.1551352
8	0x3d1d8e93	0.038466047
9	0xbe70270e	-0.23452398
10	0x3e26818a	0.16260353
11	0xbdfffc87	-0.12499338
12	0xbdeac702	-0.11463739
13	0xbe4ba104	-0.19885641
14	0x3b91ccac	0.0044494476
15	0x3c3659d5	0.011129816
16	0xbe1678d7	-0.14694534
17	0x3df496ca	0.11942823
18	0x3cf32e65	0.029685209
19	0x3e1e37e6	0.15451011
20	0xbc97d9a0	-0.018536389
21	0xbc67f983	-0.014158609
22	0x3d4d7926	0.050164364
23	0x3e37f4f2	0.17964533
24	0x3d13b5f8	0.03606221
25	0x3d798bd4	0.060924366
26	0x3cc2d50d	0.023783231
27	0x3d9eaa40	0.07747316
28	0xbd82d1e0	-0.06387687
29	0x3dcb4a8c	0.09926328
30	0xbd35a6f9	-0.04434869
31	0x3df8b6c0	0.12144232
32	0x3e58c183	0.21167569
33	0x3b8939d5	0.0041878023
34	0xbe4e4726	-0.20144328
35	0x3e4ded7d	0.20110126
36	0x3dd60384	0.10449889
37	0x3cf96a78	0.030446276
38	0xbea2639e	-0.31716627
39	0xbda06059	-0.07830877
40	0x3e13c01e	0.14428756
41	0xbbf1246c	-0.007359078
42	0xbec2af93	-0.38024577
43	0x3d5ac6e7	0.053412344
44	0xbd0734fc	-0.033009514
45	0x3e3f5447	0.18684493
46	0xbd2106a6	-0.03931298
47	0x3dc835ec	0.0977591
48	0xbd1dff45	-0.038573522
49	0x3e906432	0.28201443
50	0x3dd6fe91	0.104977734
51	0xbd89e713	-0.06733527
52	0x3c7dc734	0.015489388
53	0xbe080dc4	-0.13286501
54	0x3e09c771	0.13454987
55	0xbe222c88	-0.158373
56	0xbe216aba	-0.15763369
57	0x3d91f06a	0.071259335
58	0xbd3a01ae	-0.045411758
59	0x3d0e0f9c	0.034682855
60	0xbe165cd6	-0.14683852
61	0xbbeac44e	-0.0071645146
62	0xbd718619	-0.058965776
63	0x3d9ff463	0.07810285
64	0xbe910ad1	-0.28328565
65	0xbe8ef27c	-0.27919376
66	0x3d718d7c	0.05897282
67	0x3df75305	0.120763816
68	0xbd83ce9f	-0.06435894
69	0x3d10f08b	0.03538565
70	0xbe120cef	-0.14262746
71	0xbdf0421f	-0.117313616
72	0x3dc0c8bf	0.09413289
73	0xbd04bd8d	-0.032407332
74	0x3d2855f4	0.041097596
75	0x3d93c9e0	0.07216239
76	0xbca3f894	-0.020015992
77	0x3d9aaf9b	0.07553025
78	0x3e002d7b	0.1251735
79	0xbc5bb773	-0.013410437
80	0x3dce625f	0.100773565
81	0x3d0d3506	0.034474395
82	0xba661011	-0.0008776198
83	0x3da54dc0	0.0807147
84	0xbd35879a	-0.044318773
85	0x3db9b9ea	0.090686634
86	0x3e01bb8d	0.12669201
87	0x3dbf57b6	0.093429014
88	0xbbe05bc5	-0.0068468773
89	0x3d982e98	0.07430762
90	0xbde98e28	-0.11404067
91	0xbdca9823	-0.09892299
92	0xbcb9c72b	-0.022677979
93	0xbd8dc4ff	-0.0692234
94	0xbdce1586	-0.10062699
95	0x3d1ce439	0.038303588
96	0x3ae99dc3	0.0017823506
97	0xbb5406d3	-0.00323527
98	0xbd7b5e8c	-0.061369464
99	0xbdaeff10	-0.08544743
100	0xbe67c573	-0.22633915
101	0x3d98038a	0.0742255
102	0x3dca9fe9	0.09893782
103	0x3d27ba57	0.040949192
104	0x3d1f4c76	0.03889128
105	0x3e4e8216	0.20166811
106	0x3e4015b4	0.18758279
107	0xbda9254f	-0.08259069
108	0x3d813242	0.06308414
109	0x3deef262	0.116673246
110	0xbd557138	-0.052109927
111	0x3e941767	0.28924105
112	0x3d534579	0.051579926
113	0x3dc90a94	0.09816471
114	0xbe08272a	-0.1329619
115	0xbe2915fc	-0.16512293
116	0x3c34ae36	0.011027863
117	0xbd8f8f76	-0.07009785
118	0xbd1ebc1b	-0.03875361
119	0x3e1fa3a5	0.15589769
120	0xbdba1478	-0.09085935
121	0x3c83af16	0.016074698
122	0x3cb16658	0.021655247
123	0x3d315923	0.043297898
124	0xbc97fac3	-0.01855219
125	0x3d70200a	0.058624305
126	0xbd46ddc9	-0.048551355
127	0xbe37d8ee	-0.17953846
128	0xbe89f1f6	-0.26942414
129	0xbe5e04e1	-0.21681549
130	0xbe2a55c9	-0.16634287
131	0xba859d1b	-0.0010193916
132	0xbe031dbc	-0.12804312
133	0xbde09cd3	-0.10967412
134	0xbd384727	-0.04498973
135	0xbe8c7d7f	-0.27439496
136	0x3dd62d89	0.10457904
137	0x3ded16f6	0.11576645
138	0x3d928748	0.07154709
139	0x3ddddac4	0.10832742
140	0x3d068ac0	0.032847166
141	0xbd4b1d20	-0.049588323
142	0xbd17430a	-0.036929168
143	0xbe625f29	-0.22106613
144	0x3cba378c	0.022731565
145	0xbd99f497	-0.07517355
146	0x3ce54f6e	0.027991977
147	0xbd579c11	-0.05263907
148	0xbd559fd6	-0.052154385
149	0xbd02b3e1	-0.031909827
150	0x3d70d6a0	0.058798432
151	0xbc9de468	-0.019273952
152	0x3d962c62	0.07332684
153	0x3d899c45	0.06719259
154	0xbe0f7892	-0.14010838
155	0xbdf755f0	-0.12076938
156	0xbe79e52e	-0.24403831
157	0x3e19adc8	0.15007699
158	0xbcb9b9d4	-0.022671618
159	0xbdae23fd	-0.08502958
160	0x3d2456fc	0.040122017
161	0x3d9c6796	0.07636945
162	0x3d8a7777	0.06761067
163	0xbd92605e	-0.07147287
164	0x3e11af09	0.14226927
165	0x3c657aab	0.014006297
166	0x3e02dd3d	0.12779708
167	0xbe01cffa	-0.12676993
168	0xbe27f02e	-0.16400215
169	0xbd25f922	-0.040520795
170	0x3e302a15	0.17203553
171	0xbe1d49eb	-0.15360229
172	0x3c6a5846	0.014303273
173	0xbd5fdf51	-0.05465633
174	0xbd290842	-0.04126764
175	0xbddc5d94	-0.10760036
176	0x3cd3cc7b	0.02585434
177	0xbd3d4931	-0.04621238
178	0xbd6c496b	-0.057687204
179	0x3d2bf865	0.041984934
180	0x3c8035d2	0.015650664
181	0x3cceac02	0.025228504
182	0xbe8f28b2	-0.27960736
183	0xbc5edd83	-0.013602617
184	0xbde70edc	-0.11282131
185	0xbd5025ce	-0.050817303
186	0xbe692bd0	-0.2277062
187	0xbe4f9c60	-0.20274496
188	0xbd8450d2	-0.06460728
189	0x3d0aa82e	0.033851795
190	0x3e332a96	0.17496714
191	0xbd131b02	-0.03591443
192	0x3d6f2e4a	0.058393754
193	0x3d8de531	0.069284804
194	0xbdfeff31	-0.12451018
195	0x3d88ab05	0.066732444
196	0xbe30f3d0	-0.17280507
197	0x3d1b1a14	0.037866667
198	0xbdcbb6dc	-0.09946987
199	0xbe182edb	-0.14861624
200	0x3ca79e24	0.02046115
201	0xbe3d21f4	-0.18469983
202	0xbcf88a4b	-0.03033938
203	0x3d81ddf7	0.063411646
204	0xbe48be9a	-0.19603959
205	0xbe3b5b75	-0.18296607
206	0x3def93f7	0.11698144
207	0x3e218e01	0.15776826
208	0xbdbbe77c	-0.091750115
209	0x3cfe6133	0.031052208
210	0xbdf77705	-0.12083248
211	0xbe3db787	-0.18527041
212	0xbccf5b29	-0.025312023
213	0x3dae024a	0.0849653
214	0xbde612c2	-0.112340465
215	0xbd6b71b3	-0.05748148
216	0x3d89440d	0.06702433
217	0x3c23fa94	0.010008473
218	0x3dc0c4e7	0.09412556
219	0xbce186cf	-0.027530102
220	0xbdd03590	-0.10166466
221	0x3d9420e4	0.07232836
222	0xbdbe6ba5	-0.09297875
223	0xbd8695ac	-0.065715164
224	0xbdac211d	-0.08404753
225	0xbe1f4210	-0.15552545
226	0x3e1044ac	0.14088696
227	0xbe359996	-0.1773437
228	0x3da60d56	0.081080124
229	0x3dd97402	0.1061783
230	0xba95edd2	-0.0011438674
231	0xbe6ae6fe	-0.22939679
232	0xbce1e7da	-0.027576376
233	0xbe0c7f17	-0.13720356
234	0xbc983aee	-0.018582787
235	0xbdcaf9cf	-0.099109285
236	0xbdac0db7	-0.084010534
237	0xbe17cca5	-0.1482416
238	0xbd8b6aab	-0.06807455
239	0xbdd388e3	-0.103288434
240	0xbde7c101	-0.113161094
241	0x3e04f220	0.12982988
242	0xbe00cd2d	-0.12578268
243	0xbda192fd	-0.07889364
244	0xbd020cc4	-0.031750455
245	0xbd60ccce	-0.054882817
246	0x3e51fc43	0.20506386
247	0xbe074b16	-0.13212237
248	0x3d05f9c8	0.032708913
249	0xbde6fad6	-0.11278312
250	0xbd4b1f95	-0.049590666
251	0x3e0fad50	0.14030957
252	0xbe2a45fa	-0.16628256
253	0xbd4eefcf	-0.050521668
254	0x3d56adce	0.052411847
255	0xbc348c24	-0.01101974

network_body._body_endoder.seq_layers.2.bias f4 [128]
0	0x3c340739	0.01098805
1	0xbd87f411	-0.06638349
2	0xbd39a3ea	-0.045322336
3	0x3d458835	0.0482256
4	0x3d6e4a62	0.058176406
5	0x3d8103c6	0.06299548
6	0xbda390fd	-0.07986639
7	0xbda59403	-0.080848716
8	0xbd7ec909	-0.06220344
9	0xbcae4db3	-0.021277284
10	0x3d978c05	0.073997535
11	0x3dfc1d72	0.12310304
12	0x3dc14883	0.09437659
13	0xbbdcc029	-0.0067367745
14	0x3c8cb373	0.017175412
15	0xbd626cd7	-0.05527958
16	0x3ddd20ac	0.10797247
17	0x3d5267a4	0.05136837
18	0x3d492879	0.049110863
19	0xbd17ee2d	-0.037092377
20	0x3d3a410d	0.045472194
21	0x3c68148a	0.014165053
22	0xbc2618e5	-0.010137771
23	0xbdc297ac	-0.09501585
24	0xbdfc2085	-0.1231089
25	0x3c9a2b84	0.018819578
26	0x3d956a2f	0.072956435
27	0xbc0767be	-0.00826448
28	0xbdce8b28	-0.10085136
29	0xbd97b83a	-0.07408185
30	0x3d7798cb	0.06044845
31	0x3de0dc00	0.10979462
32	0x3df25be8	0.11833936
33	0x3c172932	0.00922613
34	0x3da2342c	0.07920107
35	0x3c32e789	0.01091946
36	0x3c06e18a	0.008232484
37	0x3d099df4	0.0335979
38	0x3d40c3ba	0.04706166
39	0x3e06524f	0.13117336
40	0x3de94b4d	0.113913156
41	0x3d090837	0.0334551
42	0x3dc8845f	0.09790873
43	0x3d918f40	0.07107401
44	0xbc72abe6	-0.014811492
45	0x3a8e76a9	0.0010869104
46	0x3d424fd2	0.047439404
47	0xbd83f715	-0.064436115
48	0x3dfde00c	0.12396249
49	0x3db63c41	0.08898211
50	0x3cf18043	0.029480105
51	0x3dba424a	0.09094675
52	0xbe0a6ae9	-0.13517345
53	0x3d990ba2	0.07472922
54	0x3ba7aaa5	0.005116778
55	0x3d27eae1	0.040995482
56	0xbc6f7170	-0.014614448
57	0x3d5ae778	0.053443402
58	0xbc72d789	-0.014821895
59	0x3de7cfc5	0.11318926
60	0x3c41038e	0.011780633
61	0x3d05b42b	0.032642525
62	0xbca61d99	-0.020277785
63	0xbd2b099d	-0.041757215
64	0x3d31aa03	0.043375026
65	0x3d867f6f	0.06567275
66	0xbd0aec8a	-0.033916987
67	0xbbd7d935	-0.0065871724
68	0x3c528ae0	0.012850493
69	0x3d9e88a4	0.07740906
70	0x3c9061ba	0.017624725
71	0x3d239468	0.039936453
72	0x3d52ee77	0.05149695
73	0xbd531daf	-0.05154198
74	0x3d5fd48b	0.054646056
75	0x3ca9d5a2	0.02073175
76	0xba002ba5	-0.0004889316
77	0xbd8db05a	-0.06918402
78	0x3dcff36e	0.101538524
79	0x3db22458	0.08698338
80	0x3deed3be	0.1166148
81	0xbd9e984f	-0.07743894
82	0x3d6e1dd2	0.058133908
83	0xbe302218	-0.17200506
84	0xbd35cbbb	-0.044383746
85	0xbd797afe	-0.06090831
86	0x3e2e498c	0.17020243
87	0x3e0cdfd5	0.1375726
88	0x3d881599	0.066447444
89	0x3d89ef11	0.067350514
90	0x3dc7bdbd	0.097529866
91	0xbde08877	-0.109635286
92	0xbcbda872	-0.02315161
93	0x3da83b19	0.08214397
94	0x3d87a621	0.066234834
95	0x3c12c262	0.008957477
96	0xbc648383	-0.01394737
97	0x3c4d3cf6	0.012526741
98	0xbd25b6b0	-0.040457428
99	0x3d9a104e	0.07522641
100	0x3daaa536	0.08332293
101	0x3d9b4cd4	0.07583013
102	0x3d75c87c	0.06000565
103	0xbdd0470c	-0.10169801
104	0xbd64e96c	-0.05588667
105	0x3df3244f	0.1187216
106	0x3d6b6574	0.0574698
107	0x3da16bc5	0.078818835
108	0xbdb53c2f	-0.0884937
109	0x3df72b54	0.12068811
110	0xbb91b6a2	-0.0044468204
111	0x3dacaf08	0.08431822
112	0x3da866a2	0.08222701
113	0x3db22cd8	0.086999595
114	0x3c024e38	0.007953219
115	0xbd5eb769	-0.054374132
116	0xbd69c837	-0.057075705
117	0xbd8810ed	-0.06643853
118	0x3d8f9f15	0.07012764
119	0x3cc8826d	0.024476254
120	0x3dc4f454	0.096169144
121	0x3d57fe96	0.052733026
122	0x3dba1e15	0.09087769
123	0x3dbc8fca	0.09207113
124	0xbd387089	-0.045029197
125	0x3db9b849	0.09068353
126	0x3d37386b	0.04473154
127	0x3d07f267	0.033190157

action_model._continuous_distribution.log_sigma f4 [1, 2]
0	0xbf0c63f4	-0.54840016
1	0xbf2c1329	-0.67216736

action_model._continuous_distribution.mu.weight f4 [2, 128]
0	0xbdde533a	-0.10855718
1	0xbd2898ba	-0.041161276
2	0x3d574e27	0.052564766
3	0xbbdd3f41	-0.006751925
4	0xbe20e085	-0.15710647
5	0x3daa7229	0.083225556
6	0xbd473984	-0.048638836
7	0xbd521634	-0.051290706
8	0xbe1c5dae	-0.15270111
9	0x3e0f29ea	0.13980833
10	0x3d0c5f7f	0.03427076
11	0x3cd1bee7	0.025603725
12	0x3d7e9d7e	0.062161915
13	0xbdac0b20	-0.084005594
14	0x3ca62b1a	0.020284224
15	0x3d2c50ea	0.042069353
16	0xbc67ac5e	-0.014140217
17	0xbe32b512	-0.17451885
18	0x3bb7bf03	0.005607487
19	0x3ca0f9e9	0.019650416
20	0x3d641d56	0.05569204
21	0xbc84e8c0	-0.016224265
22	0xbcc337c7	-0.023830308
23	0x3da41a03	0.08012774
24	0x3d72a0d6	0.059235416
25	0xbe06ad60	-0.13152075
26	0x3dbedf46	0.0931993
27	0xbd9538f7	-0.07286256
28	0x3c5bca43	0.013414922
29	0xbcd86466	-0.026415061
30	0xbe28ac3e	-0.16471955
31	0xbe276d29	-0.16350235
32	0xbcbc8c36	-0.023016077
33	0x3ced7d5c	0.02899044
34	0xbbbdb214	-0.005789051
35	0x3d459857	0.048240986
36	0xbdb46feb	-0.08810409
37	0xbcefe67d	-0.02928471
38	0x3d04e2db	0.03244291
39	0x3d0ccc1c	0.03437434
40	0xbd5023d6	-0.050815426
41	0xbe058755	-0.13039906
42	0x3e19df41	0.15026571
43	0xbdd5a517	-0.10431879
44	0x3d6a5fa6	0.057220124
45	0xbda23e0c	-0.07921991
46	0xbdbae67c	-0.09125993
47	0xbd7e7e23	-0.062132012
48	0x3b1272c4	0.0022346238
49	0x3d2316c9	0.03981665
50	0xbdecb3e7	-0.11557751
51	0x3db6bfa5	0.08923272
52	0xbb931560	-0.004488632
53	0x3d78b49e	0.060719125
54	0xbd88ad0c	-0.06673631
55	0xbafd467d	-0.0019323375
56	0xbdfcd58f	-0.123454206
57	0xbc91a809	-0.01778032
58	0xbd95dd5e	-0.07317613
59	0xbd5d5ff0	-0.05404657
60	0xbda5f82e	-0.08103977
61	0xbdc6a16d	-0.09698758
62	0x3cdc3b0b	0.026883623
63	0xbd385b91	-0.0450092
64	0x3d870cd2	0.06594242
65	0x3d83ee5c	0.06441948
66	0x3cb6aaf0	0.022298306
67	0x3d99120d	0.07474146
68	0x3ca8cbf3	0.020605063
69	0x3daefc67	0.08544236
70	0x3d225918	0.039635748
71	0xbe116ec0	-0.14202404
72	0xbe052f5f	-0.13006352
73	0xbca4bb87	-0.020108951
74	0xbdf79bb9	-0.120902486
75	0x3c11df1b	0.00890329
76	0x3cefc846	0.029270303
77	0x3cd203b7	0.025636537
78	0x3da6a66b	0.081372105
79	0xbd763db5	-0.060117442
80	0x3ded3de7	0.115840726
81	0x39a1435c	0.000307585
82	0xbdc68f9e	-0.096953616
83	0x3c705d6e	0.014670713
84	0xbe08635c	-0.13319153
85	0xbd9c9ccc	-0.07647094
86	0x3db85051	0.08999694
87	0xbe07a8bb	-0.1324796
88	0x3db20479	0.08692259
89	0xbd691cbe	-0.056912176
90	0xbc342b20	-0.01099661
91	0xba02cc90	-0.00049895886
92	0x3d90707c	0.07052705
93	0x3d255729	0.040366326
94	0xbb6a0d87	-0.003571363
95	0xbd861d40	-0.06548548
96	0x3cb15420	0.02164656
97	0xbddbbaf5	-0.107290186
98	0x3d502923	0.05082048
99	0x3d23db3e	0.040004008
100	0xbe271954	-0.16318256
101	0xbe3211b1	-0.17389561
102	0xbdabf7cb	-0.08396872
103	0x3c3b2083	0.011421326
104	0x3d7ad9f5	0.061243016
105	0xbd696a06	-0.056985877
106	0xbe16dafe	-0.14731976
107	0x3de14282	0.109990135
108	0xbb33938a	-0.0027401173
109	0xbab26654	-0.0013610818
110	0x3decf884	0.11570838
111	0xbd9f5214	-0.07779327
112	0xbe2a14ca	-0.16609493
113	0xbc9540c3	-0.018219357
114	0xbb84c419	-0.004051697
115	0xbbb40271	-0.005493455
116	0x3d9e21b5	0.07721273
117	0x3bfacc80	0.007653773
118	0xbe038906	-0.12845239
119	0xbca575ee	-0.020197835
120	0x3d01761c	0.03160678
121	0xbb9179b6	-0.004439558
122	0x3cbeb564	0.023279853
123	0xbe57a302	-0.21058276
124	0x3d9babbe	0.076011166
125	0x3d8342b3	0.06409206
126	0x3d2883ad	0.0411412
127	0xbdb7abc3	-0.08968308
128	0xbceacff8	-0.02866362
129	0x3c5b4e2f	0.01338534
130	0xbd426976	-0.047463857
131	0xbdf56e47	-0.11983924
132	0x3b8983ca	0.0041966187
133	0xbc9c0509	-0.01904537
134	0x3d2c0eac	0.04200618
135	0x3c19485a	0.009355629
136	0x3d0368fc	0.032082543
137	0xbd310ec2	-0.043226965
138	0x3d8706cc	0.06593093
139	0xbe47da40	-0.1951685
140	0x3db07d29	0.086176224
141	0x3db9dd5b	0.09075423
142	0xbcaccc41	-0.02109349
143	0xbcdafdc0	-0.026732326
144	0x3dcd9b28	0.10039359
145	0x3dc34cc6	0.09536128
146	0xbda527f8	-0.08064264
147	0xbc9309cf	-0.017949013
148	0x3d8c7f17	0.06860178
149	0x3debb140	0.11508417
150	0x3c856152	0.016281758
151	0x3a12b449	0.00055963226
152	0xbe06abf6	-0.13151535
153	0x3d0c834a	0.034304895
154	0xbd61ace6	-0.05509653
155	0xbd0ff974	-0.035150006
156	0xbd92ca2b	-0.07167467
157	0xbd1616b5	-0.03664275
158	0x3be17d2b	0.0068813763
159	0x3bcb0669	0.0061958325
160	0xbdfa8b04	-0.122335464
161	0xbc2026f2	-0.00977491
162	0x3dea3515	0.11435906
163	0xbd527f23	-0.05139078
164	0x3c552e2c	0.0130114965
165	0xbd392188	-0.045197994
166	0xbd8d1dd9	-0.068904586
167	0x3e220a97	0.15824352
168	0x3da4dca2	0.08049895
169	0x3d17cab4	0.037058547
170	0x3d7ed327	0.06221309
171	0x3c0c8940	0.008577645
172	0xbcd3f474	-0.0258734
173	0xbd8cd8d8	-0.06877297
174	0x3c2520d3	0.010078627
175	0xbd87b66e	-0.066265926
176	0x3dd41251	0.10355056
177	0xbd8b104b	-0.06790217
178	0xbc7eca0a	-0.0155511
179	0x3d8c019f	0.06836247
180	0xbd4e2432	-0.050327487
181	0x3c4835e4	0.01221988
182	0x3c08d3b1	0.008351252
183	0xbda58bb6	-0.08083288
184	0x3e0f2888	0.13980305
185	0xbd30c8e0	-0.04316032
186	0x3daee8fb	0.08540531
187	0x3de0c1e6	0.10974483
188	0xbd354e82	-0.044264324
189	0x3d822c23	0.06356075
190	0xbd10fa30	-0.035394847
191	0x3d3722d2	0.04471094
192	0x3dda53d3	0.106605195
193	0xbd1ead90	-0.03873974
194	0xbc8c0d75	-0.01709626
195	0x3d7b58bc	0.06136392
196	0xbc0b029c	-0.008484509
197	0x3d0297d5	0.03188308
198	0xbcd85952	-0.026409779
199	0x3e1fc6e4	0.15603215
200	0x3a84871e	0.0010111069
201	0xbd85d899	-0.06535453
202	0x3cb7b2c6	0.022424113
203	0xbd8d3b9b	-0.068961345
204	0x3ca56a23	0.020192211
205	0x3d4d1199	0.05006561
206	0x3dda83e3	0.10669687
207	0x3dac7c35	0.08422128
208	0x3cc15f04	0.023604877
209	0xbd56e516	-0.052464567
210	0x3cbaa339	0.022782909
211	0x3c57b657	0.013166032
212	0xbd33d96e	-0.04390853
213	0x3c75d2bd	0.015003857
214	0x3e3be815	0.18350251
215	0x3d793b4f	0.060847577
216	0x3b1b5629	0.0023702479
217	0x3d9673f9	0.07346339
218	0xbdf007b7	-0.117202215
219	0xbd5f6046	-0.054535173
220	0x3c6c50ec	0.01442359
221	0xbda4e0c8	-0.08050686
222	0xbd9ee86e	-0.07759176
223	0xbd14537f	-0.03621244
224	0xbdc54a43	-0.09633305
225	0x3d18276c	0.03714697
226	0xbcffe3e2	-0.031236593
227	0x3d947397	0.072486095
228	0x3d0e850a	0.034794845
229	0x3d509304	0.050921455
230	0x3d98b16b	0.07455715
231	0x3c892230	0.016739935
232	0xbd074325	-0.03302302
233	0x3dd7f9f2	0.1054572
234	0xbd88e589	-0.06684405
235	0xbc309d6b	-0.010779719
236	0xbe1f7d68	-0.15575182
237	0xbe24630e	-0.16053411
238	0xbd248e9c	-0.040175065
239	0x3dd4b86f	0.103867404
240	0xbc315090	-0.01082243
241	0x3db544d5	0.08851019
242	0x3dadcd1c	0.08486387
243	0x3d0a3f37	0.033751693
244	0xbdaaa6ba	-0.08332582
245	0xbd4ff135	-0.050767142
246	0x3cf6505f	0.03006762
247	0xbdcd1b76	-0.100150034
248	0xbda28191	-0.07934869
249	0xbdba1deb	-0.09087738
250	0xbd852f00	-0.06503105
251	0x3c063899	0.008192205
252	0xbcf6c568	-0.030123428
253	0x3ddefded	0.10888276
254	0xbd1a80c6	-0.037720464
255	0xbb82a080	-0.0039864182

action_model._continuous_distribution.mu.bias f4 [2]
0	0x3bab1867	0.005221415
1	0x3c50825d	0.0127263935

action_model._discrete_distribution.branches.0.weight f4 [1, 128]
0	0x3b4681b8	0.003028972
1	0x3ac41667	0.001496029
2	0x3abbcf10	0.0014328677
3	0x3a2f0775	0.00066768314
4	0x3b90dc8d	0.004420823
5	0xbcc79664	-0.024363704
6	0xbb36fca3	-0.002792158
7	0x3c13be87	0.009017593
8	0xbbb89167	-0.0056325677
9	0xbc8a600b	-0.0168915
10	0x3c3c5abb	0.011496241
11	0x3c516b4a	0.012781927
12	0x3c3aaf13	0.01139428
13	0x3cbca24c	0.023026608
14	0xbb9583f4	-0.004562849
15	0x3c2008ec	0.009767752
16	0xb9e30132	-0.00043297705
17	0xbbd21710	-0.0064114407
18	0x3b40dec4	0.0029429654
19	0x3b22cc32	0.0024840948
20	0xbabea204	-0.0014544134
21	0x3c1fb0d8	0.009746753
22	0x3bf07f6f	0.00733941
23	0x3b830ba8	0.0039991923
24	0xbb2e2dce	-0.0026577595
25	0x3bac31d8	0.0052549653
26	0x3bf42318	0.0074504726
27	0xbbda85f7	-0.006668802
28	0x3c175e4a	0.009238789
29	0x3c646def	0.013942226
30	0xba59e9fd	-0.000831276
31	0x3bcf6be8	0.006330002
32	0xbb17bb7b	-0.0023152519
33	0x3bbfa230	0.0058481917
34	0x3cad224f	0.021134524
35	0xbb889bd7	-0.004168968
36	0x3b5b6b45	0.0033480686
37	0x3cb644c7	0.022249592
38	0x3c830819	0.015995072
39	0xbbccf310	-0.0062545612
40	0x3b54b385	0.0032455635
41	0xbc50695d	-0.012720433
42	0x3b9cd749	0.004786406
43	0xbc4a551d	-0.012349394
44	0x3ab4fc86	0.0013808168
45	0xba5556f7	-0.0008138264
46	0xbc839485	-0.01606203
47	0x3c464125	0.012100493
48	0xbcb28b99	-0.021795081
49	0xbba74277	-0.005104359
50	0x3caf4c65	0.021398732
51	0xbc0dc9e3	-0.008654091
52	0x3b2433a7	0.0025055201
53	0x3c87b3b5	0.016565183
54	0xbb1f08d1	-0.002426673
55	0x3c2e85ef	0.010652049
56	0x3b52b3ed	0.00321507
57	0xbc356477	-0.011071316
58	0xbb82663d	-0.003979473
59	0xbbbed601	-0.005823851
60	0x3c3351f5	0.010944833
61	0xbc6d99ba	-0.014501983
62	0x3c4a2d19	0.012339854
63	0x3c8fc8d6	0.01755182
64	0x3abbe7f5	0.0014336096
65	0xb94af9b7	-0.00019357247
66	0xbb26f9f3	-0.0025478571
67	0xb9fc90ea	-0.00048173155
68	0xba4fda07	-0.0007928912
69	0x3bf8fbd2	0.0075983787
70	0x3b8b719b	0.004255486
71	0xbc61b55a	-0.013776148
72	0xbc22ccc3	-0.009936514
73	0xbc588ff5	-0.013217916
74	0x3aabb89e	0.0013101285
75	0xbbc4a594	-0.0060011838
76	0xbbf23c30	-0.007392429
77	0x3c710ed5	0.014713009
78	0x3c9a64d6	0.01884691
79	0xbb816c9f	-0.003949716
80	0xbab322bd	-0.0013666969
81	0xb9406aff	-0.00018350406
82	0x3c1cf833	0.00958066
83	0x3b6f9052	0.0036554527
84	0xbc21a4e2	-0.009865971
85	0x3b147581	0.0022653046
86	0x3a229491	0.00062019477
87	0xbb63eb85	-0.0034777832
88	0x3c612193	0.013740915
89	0x3c141d18	0.00904014
90	0x3b88c32d	0.0041736574
91	0xbbc1f603	-0.0059192195
92	0x3919311b	0.0001460951
93	0xbb155ff1	-0.0022792781
94	0x3b04de87	0.0020274238
95	0xba5d518d	-0.0008442633
96	0x3bc24c32	0.0059294933
97	0x3b5d5b60	0.0033776388
98	0x398bea99	0.00026686935
99	0xbc27be3e	-0.010238228
100	0x3a78c800	0.00094902515
101	0x3c22de09	0.009940633
102	0xbb58cddb	-0.0033081684
103	0xbb5f1cc0	-0.0034044236
104	0xbb80d70d	-0.003931886
105	0xbb289e56	-0.0025729141
106	0xbbce42cd	-0.0062945844
107	0xbbc19e34	-0.005908752
108	0x3b034120	0.0020027831
109	0x3c4e8740	0.012605488
110	0x3aca8700	0.001545161
111	0xbb4538d6	-0.0030093691
112	0xbc26e576	-0.010186544
113	0x3c157d2b	0.009124081
114	0x3b625bfd	0.0034539693
115	0xbb04e148	-0.002027588
116	0x3ba8140c	0.005129343
117	0xbc140fc2	-0.00903696
118	0x3bd69242	0.006548197
119	0x3c51fecb	0.012817095
120	0xbc76f4c7	-0.015073008
121	0xbaca0c83	-0.0015415106
122	0x3be037dd	0.006842597
123	0x3c1ba861	0.009500594
124	0x3b03db33	0.0020119667
125	0xba0e04c3	-0.00054175797
126	0xbc50fee7	-0.012756086
127	0x3c29dff3	0.010368335

exp_avg f4 [128, 8]
0	0xbc54dcc2	-0.012992086
1	0xba98c3f6	-0.0011655081
2	0xbc537af3	-0.012907731
3	0xbc862d72	-0.016379092
4	0xba98c41a	-0.0011655123
5	0x3d21b8f7	0.039483037
6	0x3c2e2fa4	0.010631476
7	0x3ca7c23b	0.020478358
8	0x3ba9f284	0.005186381
9	0xbb94bd7c	-0.00453919
10	0x3bb28b1e	0.005448713
11	0x3c023200	0.007946491
12	0xbb94bd79	-0.0045391885
13	0xbc1647c8	-0.009172387
14	0xbca1d8f4	-0.019756772
15	0xbb72c4d1	-0.0037043581
16	0xbcf4a3ae	-0.029863205
17	0xbba59b48	-0.0050539114
18	0xbc7ff096	-0.015621325
19	0xbc6705f6	-0.014100542
20	0xbba59b44	-0.0050539095
21	0x3d248b66	0.040172003
22	0x3c67ab6e	0.014139993
23	0x3b8fa75d	0.004383965
24	0xbbd58908	-0.0065165795
25	0xbb2a7b60	-0.0026013479
26	0x3b7315b4	0.0037091793
27	0xbc5fb864	-0.013654802
28	0xbb2a7b9c	-0.0026013618
29	0x3c152f06	0.00910545
30	0xbbe37b1b	-0.0069421655
31	0x3c6fe766	0.014642572
32	0x3c1ae930	0.00945501
33	0xbb85469e	-0.004067256
34	0x3c01c3ec	0.007920247
35	0xbaeb9ca2	-0.0017975757
36	0xbb85469d	-0.0040672556
37	0xbafc4568	-0.0019246759
38	0x3b6a90ef	0.0035791954
39	0x3980ad18	0.00024543027
40	0xbc06d3a0	-0.008229166
41	0x3b396cc6	0.0028293594
42	0xbbca5918	-0.0061751716
43	0xbad0d34a	-0.001593211
44	0x3b396cce	0.0028293612
45	0x3ca4ffec	0.020141564
46	0x3c17341b	0.0092287315
47	0xbb066122	-0.0020504673
48	0xbc9d03f8	-0.019166932
49	0xbb2a93de	-0.0026028077
50	0xbc57b126	-0.013164794
51	0xbc144770	-0.009050235
52	0xbb2a93de	-0.0026028077
53	0x3c12ad6d	0.008952481
54	0xbbbf268c	-0.0058334526
55	0xba7206a4	-0.0009232557
56	0xbc8e21d0	-0.017350107
57	0x3c3c788b	0.011503349
58	0xbc9c36ce	-0.019069102
59	0xbcaebb44	-0.02132953
60	0x3c3c789d	0.011503366
61	0x3c8d1634	0.017222501
62	0x3bd12e62	0.006383703
63	0x3c558630	0.013032481
64	0xbc230317	-0.009949467
65	0xb94743cf	-0.0001900338
66	0xbc4546e8	-0.012040831
67	0xbb57e185	-0.0032940817
68	0xb9473eb1	-0.00019001473
69	0x3cafce9c	0.021460824
70	0x3c437fa0	0.011932284
71	0x3c48787e	0.012235759
72	0x3cd32360	0.025773704
73	0xbc22e0a6	-0.009941256
74	0x3d0dd116	0.034623228
75	0x3cac1d9b	0.02101021
76	0xbc22e0b0	-0.009941265
77	0xbd035255	-0.03206094
78	0xbce17360	-0.027520835
79	0x3d00819c	0.031373605
80	0xbc6ed009	-0.014575967
81	0xbb0cd95e	-0.0021491866
82	0xbbf3bda4	-0.0074383784
83	0xbc48b84a	-0.012250969
84	0xbb0cd962	-0.0021491875
85	0x3c8af0ac	0.016960464
86	0x3bab602b	0.00522997
87	0x3a2378bb	0.0006235947
88	0x3bb18332	0.005417251
89	0xbb4099e9	-0.0029388613
90	0x3a62ea70	0.000865615
91	0xba27e57c	-0.000640474
92	0xbb4099f4	-0.0029388638
93	0xbb9770ca	-0.0046216
94	0x3c7c04fc	0.015382048
95	0x3bc282e3	0.005936013
96	0x3c724645	0.014787261
97	0xbb9a0f28	-0.004701514
98	0x3c961a25	0.018323014
99	0x3c72f7c2	0.014829578
100	0xbb9a0f26	-0.004701513
101	0xbca9e92f	-0.020741073
102	0xbc802145	-0.015640864
103	0x3be081f6	0.00685143
104	0x3bc6a452	0.006062069
105	0xbbd1deb5	-0.0064047226
106	0x3c814573	0.015780186
107	0xbc30c195	-0.010788341
108	0xbbd1deb5	-0.0064047226
109	0xbc57d16b	-0.013172488
110	0xbccaf342	-0.024774197
111	0xbae9bf60	-0.0017833523
112	0x3b048576	0.002022115
113	0x3ab8b591	0.0014092197
114	0xbb38b205	-0.002818228
115	0x3acbf60a	0.0015560996
116	0x3ab8b555	0.0014092127
117	0x3c179216	0.009251138
118	0x3c9051a9	0.017617064
119	0x3c24d358	0.010060154
120	0xbd0049ef	-0.03132051
121	0xbc1cbcc9	-0.009566494
122	0x3a814088	0.0009861151
123	0xbc049c56	-0.008093914
124	0xbc1cbcbb	-0.009566481
125	0x3cbb15d8	0.022837564
126	0xbd0a11e8	-0.033708483
127	0xbc659dab	-0.014014642
128	0x3caa63c6	0.020799529
129	0x3b2b2cb1	0.0026119167
130	0x3c6267bc	0.0138186775
131	0x3c702b2e	0.014658732
132	0x3b2b2cb8	0.0026119184
133	0xbcf2e5f7	-0.029650671
134	0x3a58dc5e	0.00082725834
135	0x3cd8fd93	0.026488101
136	0x3cc81a21	0.024426522
137	0xba8f647a	-0.0010939979
138	0x3ba69770	0.0050839707
139	0x3c34a74b	0.011026214
140	0xba8f6488	-0.0010939995
141	0x3a7ad8e1	0.00095690606
142	0x3ca9c5ce	0.020724203
143	0x3c91693b	0.017750373
144	0x3b4de43c	0.0031416556
145	0x3c0053a6	0.007832443
146	0xbbda5d0e	-0.006663925
147	0x3bd84f48	0.006601248
148	0x3c0053a2	0.00783244
149	0xbc8168fd	-0.015797133
150	0xbbe79053	-0.0070667653
151	0xbbd364f2	-0.0064512426
152	0x3b4c229b	0.0031148556
153	0x3b07ee96	0.0020741574
154	0x3c82d1c1	0.01596916
155	0xbc51509c	-0.012775566
156	0x3b07ee8c	0.002074155
157	0xbc6adf82	-0.014335515
158	0xbc254419	-0.0100870365
159	0xbb3680ec	-0.002784784
160	0xbb423ab7	-0.0029637048
161	0xbbad02b2	-0.0052798623
162	0x3ca5475a	0.020175625
163	0xbb34f806	-0.0027613654
164	0xbbad02c4	-0.0052798707
165	0xbc8f6070	-0.01750204
166	0xbd6a2d6e	-0.05717223
167	0xbcf9dab3	-0.030499792
168	0x3b4e7988	0.0031505544
169	0xbad67860	-0.0016362779
170	0xb9f7419e	-0.000471604
171	0x3c224729	0.009904661
172	0xbad67960	-0.0016363077
173	0xbc61243c	-0.013741549
174	0xbb1d90d8	-0.0024042632
175	0x3ca417b2	0.02003083
176	0xbbf3355d	-0.007422133
177	0x3aabbab2	0.0013101904
178	0x3bc68980	0.0060588717
179	0xbc01c6b6	-0.007920912
180	0x3aabbab8	0.0013101911
181	0xb96f7dc0	-0.00022839662
182	0xbb65c44a	-0.0035059624
183	0xbc948a92	-0.018132482
184	0xbc1b1733	-0.00946598
185	0xbb3280f0	-0.0027237497
186	0x3c05dd21	0.008170397
187	0xbc1eee1c	-0.009700324
188	0xbb3280d8	-0.0027237441
189	0x3c11f57e	0.008908628
190	0xbc86aa54	-0.01643864
191	0x39901fc0	0.00027489476
192	0xbbbd0513	-0.005768427
193	0x3a560594	0.00081642834
194	0xbbe1d304	-0.00689161
195	0xba6fe8fc	-0.0009151844
196	0x3a5606a2	0.00081644405
197	0x3ca7339c	0.020410351
198	0x3c9085be	0.017641898
199	0x3c21d1c9	0.009876677
200	0xbc98ac28	-0.018636778
201	0xbbe6e96e	-0.00704687
202	0x3ca33056	0.01992051
203	0xbcf76537	-0.03019963
204	0xbbe6e976	-0.0070468737
205	0x3b815f96	0.0039481623
206	0xbd051197	-0.032487478
207	0xbc6976e7	-0.01424954
208	0xbc4e3b04	-0.012587313
209	0xbb1489b0	-0.0022665076
210	0xbbb38dc6	-0.005479547
211	0xbbd95340	-0.0066322386
212	0xbb1489c5	-0.0022665125
213	0x3cf31496	0.029672902
214	0x3c57dfc3	0.013175908
215	0x3c9240b4	0.017853118
216	0xbc1c6014	-0.009544391
217	0x3b323064	0.0027189488
218	0xbaad1d43	-0.0013207573
219	0xbbeb0e2a	-0.0071733193
220	0x3b32304a	0.0027189427
221	0x3b973607	0.004614595
222	0x3bad452e	0.005287788
223	0xbc0b5263	-0.008503529
224	0x3b28edfa	0.002577661
225	0xbbac87b9	-0.005265203
226	0x3c302bda	0.0107526425
227	0xbbfd7f60	-0.0077361315
228	0xbbac87b9	-0.005265203
229	0xbb73e563	-0.0037215583
230	0xbc767c12	-0.015044229
231	0x3a7a552c	0.0009549435
232	0x3c858fee	0.016303983
233	0xbc39ba2e	-0.011335893
234	0x3d1ba1b2	0.037996
235	0x3c7eebaa	0.015559116
236	0xbc39ba2e	-0.011335893
237	0xbcab9af4	-0.02094791
238	0xbd2ffe86	-0.04296734
239	0x3c96e67f	0.018420456
240	0xbbe7293c	-0.007054476
241	0xbb5d1ca1	-0.0033738988
242	0xbaf35777	-0.0018565495
243	0x3a016758	0.0004936359
244	0xbb5d1c8e	-0.0033738944
245	0x3c5ea951	0.013590173
246	0x3b3735af	0.0027955582
247	0xbba319ec	-0.0049774554
248	0xb9af2f78	-0.00033413968
249	0x3b8b7c74	0.0042567793
250	0xbb8f9643	-0.0043819263
251	0xbc7c29fa	-0.015390867
252	0x3b8b7c7c	0.004256783
253	0x3d32a646	0.043615602
254	0x3d3cba44	0.046076074
255	0x3d08f151	0.033433262

exp_avg_sq f4 [128, 8]
0	0x3cf285e9	0.029604869
1	0x3b9b5d5f	0.0047413553
2	0x3cd15b84	0.025556333
3	0x3cdfc327	0.027314736
4	0x3b9c358d	0.004767126
5	0x3cc71f75	0.024306992
6	0x3d354aa2	0.04426063
7	0x3d5ba898	0.05362758
8	0x3bd36508	0.006451253
9	0x3a924abd	0.001116119
10	0x3bca07e0	0.0061654896
11	0x3bbcbab9	0.0057595638
12	0x3a95ca0a	0.001142801
13	0x3bc60cad	0.0060439915
14	0x3c6690ad	0.014072579
15	0x3c472594	0.012154955
16	0x3c799abd	0.015234646
17	0x3b1fb111	0.0024367014
18	0x3c5b6377	0.0133904135
19	0x3c60f61c	0.013730552
20	0x3b205c05	0.002446891
21	0x3c4c420f	0.0124669215
22	0x3cb41811	0.021984132
23	0x3cd51b48	0.026013985
24	0x3b4a0680	0.0030826628
25	0x3a0673e1	0.00051289616
26	0x3b2a667b	0.0026001025
27	0x3b3e1abf	0.002900764
28	0x3a08ea84	0.0005222934
29	0x3b5d6967	0.0033784749
30	0x3b801956	0.0039092703
31	0x3ba4596d	0.005015543
32	0x3a85b0e1	0.0010199809
33	0x393342ed	0.00017095702
34	0x3a8212ff	0.0009923874
35	0x3a6fcab6	0.0009147333
36	0x393835d7	0.00017567664
37	0x3a5b5485	0.00083667814
38	0x3b123ad3	0.0022312894
39	0x3b057521	0.0020364004
40	0x3b349abf	0.0027558056
41	0x3a0a31c5	0.00052716985
42	0x3b2a75eb	0.0026010226
43	0x3b19b318	0.0023452695
44	0x3a0b1daa	0.00053068495
45	0x3b45f66f	0.00302067
46	0x3bc60877	0.0060434896
47	0x3bd45dad	0.0064808936
48	0x3b78d048	0.0037965942
49	0x3a1a8c94	0.00058955816
50	0x3b7dcfc1	0.0038728567
51	0x3b4d93e5	0.003136867
52	0x3a1c5b0c	0.0005964495
53	0x3b1effa9	0.0024261272
54	0x3be45ab7	0.006968822
55	0x3bd95194	0.0066320393
56	0x3c5e95ee	0.013585551
57	0x3b03de1f	0.0020121408
58	0x3c37da87	0.011221535
59	0x3c412764	0.011789177
60	0x3b053c7f	0.0020330248
61	0x3c2c2953	0.010507899
62	0x3ca0e178	0.019638762
63	0x3c9c30d5	0.019066254
64	0x3c13ac29	0.009013214
65	0x3ab42810	0.001374485
66	0x3bf5b4e6	0.0074983714
67	0x3c0a2bda	0.008433307
68	0x3ab47853	0.001376877
69	0x3bf97fd1	0.007614114
70	0x3c59b538	0.013287835
71	0x3c639544	0.013890568
72	0x3c0b6da5	0.008510028
73	0x3aef2a21	0.0018246808
74	0x3c1bc959	0.009508454
75	0x3c162b7e	0.009165643
76	0x3af02ef9	0.0018324546
77	0x3c29df65	0.010368203
78	0x3cb0bd56	0.021574657
79	0x3cb5df15	0.0222011
80	0x3b7c765e	0.00385227
81	0x3a1b9dad	0.0005936276
82	0x3b579b4f	0.0032898968
83	0x3b5b6a8c	0.0033480255
84	0x3a1c49bb	0.00059619144
85	0x3b3fe902	0.002928317
86	0x3ba96b88	0.0051702894
87	0x3bca180b	0.006167417
88	0x3a9498a0	0.001133699
89	0x3965ed0f	0.00021927453
90	0x3a9b5bbc	0.00118529
91	0x3ab5d54a	0.0013872769
92	0x396680e6	0.00021982528
93	0x3ac0bbd5	0.0014704416
94	0x3b09fbd5	0.0021054645
95	0x3af5a97e	0.0018742529
96	0x3b891b23	0.004184143
97	0x3a5282c7	0.00080303516
98	0x3b89bd9b	0.004203511
99	0x3b50fe09	0.0031889698
100	0x3a532da5	0.0008055813
101	0x3b98da5c	0.0046647023
102	0x3c55b6bf	0.013044058
103	0x3c22de08	0.009940632
104	0x3bd1d6d9	0.0064037857
105	0x3a895f0d	0.0010480598
106	0x3bba9e1e	0.0056951186
107	0x3ba17600	0.004927397
108	0x3a89b52e	0.0010506266
109	0x3bd8a757	0.0066117453
110	0x3c3a958d	0.011388195
111	0x3c522057	0.012825093
112	0x3b6b299f	0.0035882962
113	0x3a0f3d0c	0.0005464114
114	0x3b3dcecd	0.0028962374
115	0x3b22f181	0.0024863186
116	0x3a0fd401	0.0005486608
117	0x3b40acc4	0.0029399851
118	0x3bb93d9a	0.0056530954
119	0x3bd09b54	0.006366173
120	0x3ba33050	0.0049801245
121	0x3a623f8a	0.0008630684
122	0x3b93eb38	0.0045141242
123	0x3b89ce87	0.004205528
124	0x3a630e34	0.0008661479
125	0x3b807c09	0.003921036
126	0x3c165a92	0.009176867
127	0x3c4164c2	0.011803808
128	0x3bb4f6be	0.005522578
129	0x3a6ad062	0.0008957443
130	0x3b8af050	0.0042400733
131	0x3b8264d6	0.0039793057
132	0x3a6cdb45	0.0009035359
133	0x3bb171cd	0.0054151774
134	0x3c2bb44c	0.010479998
135	0x3c319045	0.010837619
136	0x3bbd158f	0.0057703923
137	0x3a8d7441	0.0010792093
138	0x3bc7ca9c	0.006097151
139	0x3ba7c966	0.005120444
140	0x3a8df22e	0.0010829621
141	0x3badc3b9	0.005302873
142	0x3c4d16c9	0.012517639
143	0x3c60fe5a	0.013732517
144	0x3b3fc344	0.0029260674
145	0x3a12641f	0.0005584377
146	0x3b41405b	0.0029487822
147	0x3b6fb5d7	0.003657689
148	0x3a1350c5	0.00056196406
149	0x3b339346	0.0027401014
150	0x3bba776b	0.0056905053
151	0x3c034f23	0.008014473
152	0x3bb3448a	0.005470817
153	0x3a6d4559	0.0009051166
154	0x3b917ebb	0.0044401563
155	0x3b8e744a	0.004347359
156	0x3a6e5fb6	0.00090932415
157	0x3bcd11af	0.0062582116
158	0x3c1c01a2	0.009521874
159	0x3c33ebb5	0.01098149
160	0x3c44968b	0.011998783
161	0x3b1536c7	0.0022768246
162	0x3c4dc480	0.012559056
163	0x3c31494f	0.010820701
164	0x3b15f35e	0.0022880654
165	0x3c36aa88	0.011149056
166	0x3cb6b8bf	0.02230489
167	0x3d01f6c5	0.03172948
168	0x3b45d5a7	0.0030187161
169	0x39eb6d72	0.00044904236
170	0x3b1ad789	0.0023627004
171	0x3b0b0f06	0.0021218671
172	0x39eca9b8	0.00045139878
173	0x3b224b60	0.0024764165
174	0x3bdfd09e	0.006830289
175	0x3b81cc9d	0.0039611594
176	0x3b72dc2d	0.0037057505
177	0x3a2aa672	0.00065097876
178	0x3b68e760	0.00355383
179	0x3b50ebc4	0.0031878809
180	0x3a2c9594	0.0006583568
181	0x3b6939ec	0.0035587503
182	0x3bf4f6c1	0.0074757044
183	0x3bf9efbe	0.0076274564
184	0x3aeffd89	0.0018309812
185	0x39a3bf16	0.00031232153
186	0x3add2f03	0.0016874972
187	0x3abe1a6b	0.0014503723
188	0x39a6f134	0.00031841698
189	0x3af23615	0.0018479252
190	0x3b58e751	0.003309686
191	0x3b69079d	0.0035557516
192	0x3bfa92f9	0.007646915
193	0x3aa146b6	0.0012304399
194	0x3bd4867e	0.0064857593
195	0x3bdcd33a	0.0067390474
196	0x3aa1f341	0.001235582
197	0x3bcfe2ab	0.0063441596
198	0x3c6148fd	0.013750312
199	0x3c5582ba	0.013031656
200	0x3c3f5194	0.011677165
201	0x3b10adb7	0.0022076198
202	0x3c39b021	0.011333496
203	0x3c2515b3	0.010075974
204	0x3b150339	0.0022737517
205	0x3c5c6bf7	0.013453475
206	0x3cbaed51	0.02281824
207	0x3cc046d4	0.023471273
208	0x3bffa2fc	0.0078014117
209	0x3ab2fa8a	0.0013654989
210	0x3be8036d	0.0070804865
211	0x3c1085d3	0.008820969
212	0x3ab44640	0.0013753846
213	0x3bdd0823	0.0067453547
214	0x3c590ded	0.013247949
215	0x3c5ebfe6	0.013595557
216	0x3a8b7a72	0.001064135
217	0x394ef8f5	0.00019738435
218	0x3a869ff6	0.0010271061
219	0x3a920c84	0.0011142646
220	0x394f438f	0.00019766226
221	0x3a6fc5ef	0.0009146621
222	0x3b0e16a9	0.0021680987
223	0x3b47fbb1	0.003051501
224	0x3adc9618	0.0016829399
225	0x399237fb	0.00027889
226	0x3ac05615	0.0014674092
227	0x3ab062ce	0.001345718
228	0x3992874d	0.00027948097
229	0x3b08c74b	0.002087074
230	0x3b3b18eb	0.0028548788
231	0x3aef58a2	0.0018260668
232	0x3c2d2b7f	0.010569452
233	0x3b1ec332	0.0024225232
234	0x3c47c743	0.012193504
235	0x3c0ffa1a	0.008787656
236	0x3b1f70b8	0.002432866
237	0x3c688e71	0.014194117
238	0x3d02ea4c	0.031961724
239	0x3ced40eb	0.02896162
240	0x3b5cc5f5	0.0033687328
241	0x3a0f8cac	0.0005475979
242	0x3b3cec96	0.002882754
243	0x3b1c2317	0.0023824626
244	0x3a0ff086	0.0005490858
245	0x3b51c2ef	0.0032007059
246	0x3bd34d0c	0.0064483937
247	0x3bcc7acf	0.006240226
248	0x3cdc2044	0.026870854
249	0x3b96ad7c	0.0045983177
250	0x3cc6e758	0.024280235
251	0x3cc3e866	0.023914527
252	0x3b976d34	0.0046211723
253	0x3cd09efb	0.025466433
254	0x3d521aad	0.05129497
255	0x3d55a630	0.052160442

exp_avg f4 [128]
0	0xba98c3fd	-0.0011655089
1	0xbb94bd7c	-0.00453919
2	0xbba59b4b	-0.0050539128
3	0xbb2a7b60	-0.0026013479
4	0xbb85469e	-0.004067256
5	0x3b396cc6	0.0028293594
6	0xbb2a93db	-0.002602807
7	0x3c3c788b	0.011503349
8	0xb94743ad	-0.0001900333
9	0xbc22e0a6	-0.009941256
10	0xbb0cd95e	-0.0021491866
11	0xbb4099e8	-0.002938861
12	0xbb9a0f26	-0.004701513
13	0xbbd1debc	-0.006404726
14	0x3ab8b591	0.0014092197
15	0xbc1cbcc9	-0.009566494
16	0x3b2b2cae	0.002611916
17	0xba8f6470	-0.0010939967
18	0x3c0053a5	0.007832442
19	0x3b07ee98	0.0020741578
20	0xbbad02b2	-0.0052798623
21	0xbad67861	-0.001636278
22	0x3aabbab0	0.0013101902
23	0xbb3280f0	-0.0027237497
24	0x3a560596	0.00081642845
25	0xbbe6e96d	-0.0070468695
26	0xbb1489ae	-0.0022665071
27	0x3b323064	0.0027189488
28	0xbbac87bb	-0.005265204
29	0xbc39ba2c	-0.011335891
30	0xbb5d1ca2	-0.003373899
31	0x3b8b7c78	0.004256781
32	0x3bce68c5	0.0062991106
33	0xbaa62bdd	-0.0012677867
34	0x3a9a0d9f	0.0011753327
35	0x3b4cbd28	0.0031240676
36	0xbc744c33	-0.014910745
37	0xbbe67462	-0.007032917
38	0xbc88f56b	-0.016718587
39	0xbb4c67d0	-0.0031189807
40	0x3aa9d291	0.001295643
41	0xbc701b22	-0.0146549065
42	0xbcda3582	-0.026636843
43	0x3c7822d1	0.01514502
44	0xbb69faf0	-0.003570255
45	0x3967ad60	0.00022094464
46	0xbbe02fd0	-0.006841637
47	0x3ac9f4ee	0.0015408078
48	0x3a7fcbee	0.0009757866
49	0xbca7db6f	-0.020490376
50	0xbbd145cb	-0.006386494
51	0x3b83773a	0.0040120156
52	0x3b5b9d54	0.0033510523
53	0xbbf92da7	-0.007604319
54	0xbb8f4aab	-0.004372915
55	0xbb2c71c7	-0.0026312934
56	0xbc0230ed	-0.007946235
57	0xbb74ee4f	-0.0037373488
58	0xba2183f0	-0.0006161323
59	0xba41d578	-0.0007394175
60	0x3b1a72cf	0.0023566966
61	0xbada45a0	-0.001665283
62	0x3c8437fd	0.016139979
63	0xbb0a8ff2	-0.0021142927
64	0x3bc5e445	0.0060391747
65	0xbc18e1b3	-0.009331155
66	0x3a8b6a95	0.0010636622
67	0x3bf94c7c	0.0076079946
68	0xbc21f4db	-0.009885038
69	0xbb338df3	-0.002739784
70	0xba3e12a3	-0.0007250702
71	0xbaeceae2	-0.0018075372
72	0xba127ac4	-0.00055877515
73	0xbb3763ad	-0.0027982995
74	0xbb0aa9db	-0.002115837
75	0x3b7f87f8	0.0038990956
76	0xbacdf0bd	-0.0015712004
77	0xbb0b47d8	-0.002125254
78	0x3b5140ed	0.0031929568
79	0xbabf948e	-0.0014616416
80	0xbb3a3bf2	-0.0028417078
81	0x3c03089c	0.007997658
82	0xbc2c583a	-0.010519082
83	0x39516d30	0.00019972469
84	0x3b0b3278	0.0021239799
85	0x3c0cbaf6	0.008589497
86	0xbc581352	-0.0131882
87	0xbb2f79db	-0.0026775512
88	0x3ade270d	0.0016948894
89	0xbba48ed4	-0.0050219093
90	0xbb5bd8f8	-0.0033546071
91	0x3ad0822b	0.0015907934
92	0xbb45c037	-0.0030174383
93	0xbaa5b88f	-0.0012643504
94	0xbbb92cd3	-0.0056510954
95	0xbc2d38d0	-0.010572627
96	0xba952b38	-0.0011380678
97	0xbbcfc568	-0.0063406713
98	0x3beffd58	0.007323902
99	0xbaea35cf	-0.0017868819
100	0xb9d643c2	-0.00040867744
101	0x3a9d76a4	0.0012013507
102	0xbba6172e	-0.005068681
103	0xbca08ecc	-0.01959934
104	0xbb90bd9b	-0.004417134
105	0x3bdf062b	0.006806155
106	0xbba532c6	-0.005041453
107	0xba07fcec	-0.00051875296
108	0x3b20879b	0.002449489
109	0xbc2d842c	-0.010590594
110	0x38cfdb34	9.911359e-05
111	0x3b1ce092	0.0023937565
112	0x3b0e9ff4	0.002176282
113	0xbbbfbab2	-0.0058511132
114	0xbc3873a6	-0.0112580415
115	0x3b9bb4a3	0.004751758
116	0xbbbe22aa	-0.005802472
117	0x3b47748d	0.003043446
118	0xb981b5fc	-0.00024740386
119	0x3c2dad82	0.0106004495
120	0xbb2f62ee	-0.0026761848
121	0xbb11c0a3	-0.0022240065
122	0x3bbdcd3c	0.005792288
123	0xbc41f734	-0.011838723
124	0xbad9a3e1	-0.0016604626
125	0x3b46a854	0.0030312734
126	0xbb45eb11	-0.0030199925
127	0xba1d4e97	-0.00060007855
